Final_Submission/trading-GYM/PPO-BEST-WEIGHTS/best_highest_ppo_policy_model_weights.pth (torch, 24820 bytes, 6 tensors)

fc1.weight f4 [64, 8]
0	0xbe1239ca	-0.14279857
1	0x3e9e0643	0.30864152
2	0xbe63daaf	-0.2225139
3	0x3eb14026	0.34619254
4	0x3ea128fc	0.3147658
5	0xbdd32e2e	-0.103115425
6	0xbe9c9364	-0.305812
7	0xbbe7c7c0	-0.0070733726
8	0xbdbc6de0	-0.092006445
9	0x3e12ec0a	0.14347854
10	0x3dc6b842	0.09703113
11	0xbe9ca15c	-0.30591857
12	0xbe34cffc	-0.17657465
13	0xbe29579b	-0.16537325
14	0xbdbe796d	-0.09300504
15	0xbc999ec5	-0.018752465
16	0x3d57624e	0.052583985
17	0x3d8b917e	0.0681486
18	0x3e8fa00f	0.28051803
19	0x3db426be	0.08796452
20	0xbe082ad3	-0.13297586
21	0xbe007021	-0.12542774
22	0x3e5957ec	0.21224946
23	0xbeb1cda7	-0.34727213
24	0xbd444b07	-0.047923114
25	0xbe9020be	-0.2814998
26	0xbe073b60	-0.13206244
27	0xbe2650d3	-0.1624177
28	0x3dec0913	0.11525168
29	0x3e1995ca	0.14998546
30	0x3e08e136	0.13367161
31	0x3d714af2	0.058909364
32	0xbe426ffa	-0.18988028
33	0x3e86345e	0.26211828
34	0x3e6af5c0	0.22945309
35	0xbe3ed1fa	-0.18634787
36	0x3e732060	0.23742819
37	0xbe30080f	-0.17190574
38	0x3df3aa4a	0.118977144
39	0x3e13dfad	0.14440794
40	0xbe77b016	-0.24188265
41	0x3d67e462	0.056614287
42	0xbe9eceb9	-0.31017092
43	0x3e750f51	0.23931624
44	0x3e912b0d	0.28353158
45	0x3dc92a48	0.09822518
46	0x3e8fa9db	0.28059277
47	0x3cff5fa7	0.03117354
48	0x3e80f523	0.25187024
49	0x3eac3cef	0.3364024
50	0x3e5ecb11	0.21757151
51	0x3e8e9fc8	0.27856278
52	0x3df01a3b	0.11723753
53	0xbe024ea1	-0.12725307
54	0x3c96968c	0.018382333
55	0x3e04f1e2	0.12982896
56	0x3ec1f16a	0.37879497
57	0xbe5b15dc	-0.21395057
58	0xbdd5b482	-0.1043482
59	0xbe538440	-0.20655918
60	0xbe829f1e	-0.25512022
61	0xbe86836f	-0.2627215
62	0x3c746230	0.014915988
63	0xbd0f195b	-0.03493629
64	0x3e9ba63e	0.3040027
65	0x3ea66117	0.3249595
66	0x3e4095ac	0.18807095
67	0x3ccb34fc	0.024805538
68	0x3e9beac7	0.30452558
69	0x3e4f7e3a	0.20262995
70	0x3df635d6	0.12021987
71	0xbcc15716	-0.023601096
72	0xbd9e4ee4	-0.07729891
73	0x3e653ef5	0.22387297
74	0x3d0ec577	0.034856286
75	0xbe35ad4b	-0.17741887
76	0xbe89a8d9	-0.26886633
77	0xbdc70ca5	-0.09719209
78	0x3d834b24	0.06410816
79	0x3e033a7f	0.12815283
80	0x3e3a1403	0.18171696
81	0x3e99f0c3	0.300665
82	0xbeb7c103	-0.35889444
83	0x3d7314b0	0.0593459
84	0x3e218445	0.15773113
85	0xbe7007fd	-0.23440547
86	0xbc75aea6	-0.014995253
87	0x3e5ab38e	0.21357557
88	0x3e259958	0.16171777
89	0x3e2b98a5	0.16757448
90	0x3dbb0669	0.09132082
91	0x3e72849b	0.23683397
92	0x3d2f452f	0.042790588
93	0x3e6f57dd	0.23373361
94	0xbc98108f	-0.018562583
95	0xbe0681bf	-0.13135432
96	0x3e2e6b79	0.17033185
97	0xbdbf3117	-0.09335535
98	0xbe903254	-0.28163397
99	0xbd83d3ba	-0.06436868
100	0x3d82e798	0.06391829
101	0xbe2e67b7	-0.17031752
102	0xbe5f0813	-0.21780424
103	0xbe685c36	-0.22691426
104	0x3ea6f7d5	0.32610956
105	0x3ea078e5	0.31342235
106	0xbeb9cbce	-0.36288303
107	0x3cb1764c	0.021662854
108	0xbe1244f9	-0.14284123
109	0xbe477b4d	-0.1948063
110	0x3ce307d9	0.027713703
111	0x3e32a4ba	0.1744565
112	0xbe2c0363	-0.16798167
113	0xbdb925b2	-0.09040393
114	0xbe07debf	-0.13268565
115	0xbe5c3e1d	-0.2150807
116	0x3d8693d7	0.06571167
117	0x3daafef5	0.083494104
118	0x3e1f2433	0.15541153
119	0xbe79c6cc	-0.24392241
120	0x3e29143c	0.16511625
121	0x3e573b7e	0.21018788
122	0xbe777975	-0.24167426
123	0x3d819c1c	0.063286036
124	0x3e84cb5c	0.259364
125	0x3e80c1f6	0.2514798
126	0x3e370d3d	0.17876144
127	0xbe1f7b00	-0.15574265
128	0x3dcb0e2e	0.09914814
129	0x3e4ccc0a	0.1999971
130	0xbdbf82c2	-0.09351112
131	0xbdca4f30	-0.09878385
132	0x3d70a37b	0.058749657
133	0x3d8e1b62	0.069388166
134	0x3dbee935	0.093218245
135	0xbeb26a65	-0.34846798
136	0x3ea91010	0.33020067
137	0xbe86660d	-0.26249734
138	0xbb9456bb	-0.0045269406
139	0x3c44cf61	0.012012334
140	0xbd935313	-0.071935795
141	0x3de7aa2a	0.11311753
142	0xbe81f6d5	-0.2538363
143	0xbe60b61d	-0.2194447
144	0xbe9fdd09	-0.31223324
145	0x3e827601	0.25480655
146	0xbe66ff9b	-0.22558443
147	0xbdffff1c	-0.1249983
148	0x3d02b6ba	0.031912543
149	0xbeb65f49	-0.35619572
150	0xbe80d23c	-0.25160396
151	0x3bca6bba	0.006177393
152	0x3e41e553	0.18935136
153	0xbe481fb3	-0.19543342
154	0xbe2c5263	-0.16828303
155	0x3d332b7c	0.04374264
156	0xbeb85e98	-0.3600967
157	0xbe82e8fc	-0.25568378
158	0x3c8e3f92	0.017364297
159	0xbdb1fdf2	-0.08691014
160	0x3e8ab155	0.2708842
161	0x3e8f2ddf	0.27964684
162	0xbd91e366	-0.07123451
163	0x3e5020f0	0.20325065
164	0x3e47d17f	0.1951351
165	0xbd71230e	-0.05887132
166	0xbdb133b5	-0.086524405
167	0xbd73210c	-0.059357688
168	0x3d1eeeca	0.038801946
169	0x3e90cfe4	0.28283608
170	0xbd0edbaa	-0.034877457
171	0x3d711e70	0.058866918
172	0x3e56355a	0.2091879
173	0xbd6f1d25	-0.058377404
174	0x3e9bc137	0.3042085
175	0x3eab71dd	0.33485308
176	0x3da00408	0.07813269
177	0x3e63cd12	0.22246197
178	0xbdd03919	-0.101671405
179	0xbb7a5e93	-0.0038203343
180	0x3e2ab2d0	0.16669774
181	0x3d8354a2	0.06412627
182	0x3e42b552	0.1901448
183	0x3e7bc2c1	0.24586011
184	0x3e21309e	0.15741202
185	0xbda856a7	-0.082196526
186	0xbea8e853	-0.3298975
187	0x3e8e59c7	0.2780287
188	0xbd599143	-0.053117048
189	0xbe59cb1d	-0.21268888
190	0x3e51526f	0.20441602
191	0x3ea6342a	0.32461673
192	0xbd54262d	-0.05179422
193	0xbe009e65	-0.12560423
194	0x3ebdb787	0.37054083
195	0xbe4b142c	-0.19831914
196	0xbe8521c9	-0.2600234
197	0xbccb61d9	-0.02482693
198	0x3eb5ca9c	0.3550614
199	0xbe80334d	-0.2503914
200	0xbe92261b	-0.28544697
201	0xbe84a48d	-0.25906792
202	0xbe99c0c5	-0.30029884
203	0x3e2e7b37	0.1703919
204	0x3e279006	0.16363534
205	0xbe3a1ed8	-0.18175828
206	0xbe73f22d	-0.23822851
207	0xbebe0caa	-0.37119037
208	0xbe065686	-0.13118944
209	0x3e99543a	0.29947072
210	0xbe96b041	-0.29431346
211	0xbe85a619	-0.26103285
212	0xbe14564c	-0.14486045
213	0x3dae5265	0.08511809
214	0x3d02473b	0.031806212
215	0x3eb06610	0.34452868
216	0xbdd0d206	-0.10196309
217	0xbe66abe4	-0.22526509
218	0x3e8f9bb7	0.28048488
219	0x3d9489db	0.07252856
220	0xbe74e358	-0.2391485
221	0xbe3da463	-0.1851974
222	0x3d8c47e4	0.068496495
223	0x3e0ce5de	0.13759562
224	0xbb42bd9d	-0.002971507
225	0xbe187037	-0.14886557
226	0xbe36b43c	-0.17842191
227	0x3eb6f372	0.3573261
228	0x3e3e4300	0.18580246
229	0xbea3e50f	-0.32010695
230	0xbe6f2701	-0.23354723
231	0x3c48c201	0.012253285
232	0x3e61997f	0.2203121
233	0xbe6044b0	-0.21901202
234	0x3e13eb65	0.14445265
235	0x3e8606b8	0.26177
236	0x3dc87cc2	0.09789421
237	0x3e862b6a	0.26204997
238	0xbe0070b9	-0.12543
239	0x3e7ca56f	0.24672483
240	0xbe846771	-0.2586017
241	0xbe9a7836	-0.3016984
242	0xbdac43d4	-0.08411375
243	0x3e87c413	0.2651678
244	0xbe708048	-0.23486435
245	0x3e2444d1	0.16041876
246	0x3dc43341	0.095800884
247	0xbe8db099	-0.27673796
248	0xbe5d3f98	-0.2160629
249	0xbdbc4e15	-0.091945805
250	0x3d0ae8a1	0.03391326
251	0xbd94e509	-0.072702475
252	0xbe803fe2	-0.2504874
253	0x3c69903c	0.01425558
254	0x3e159ff1	0.14611794
255	0xbe96e3ca	-0.29470664

fc1.bias f4 [64]
0	0x3ea6fdcc	0.32615507
1	0xbe441777	-0.19149576
2	0xbbb2a06b	-0.005451252
3	0xbc7f0ad8	-0.01556655
4	0x3c67d54e	0.014149977
5	0xbe8310bf	-0.25598714
6	0x3db90227	0.09033614
7	0x3d5a2d1c	0.053265676
8	0x3deac1a9	0.11462719
9	0xbe003154	-0.12518817
10	0x3d025bc1	0.031825785
11	0xbdf5f3b9	-0.12009377
12	0x3e99af6e	0.30016655
13	0x3e456424	0.19276482
14	0x3eabdccc	0.33566892
15	0x3e871fc5	0.26391426
16	0x3e0a80a3	0.13525634
17	0x3e4e15f1	0.20125557
18	0x3e9ef5e6	0.3104698
19	0xbe200937	-0.15628515
20	0x3d4fc1fb	0.050722104
21	0x3eb03384	0.34414303
22	0xbd3d932d	-0.046282936
23	0xbe4e5f00	-0.20153427
24	0x3e93cbbe	0.2886638
25	0x3da1cfca	0.07900961
26	0xbce04d35	-0.027380565
27	0xbe8966c9	-0.2683623
28	0xbea5d786	-0.32390994
29	0x3e98abd2	0.29818588
30	0xbd3235b9	-0.043508265
31	0x3e71ae47	0.23601638
32	0xbea0ac7a	-0.3138159
33	0xbe353333	-0.17695312
34	0xbea4267c	-0.3206061
35	0xbe57a8af	-0.21060441
36	0xbe07525d	-0.13215013
37	0x3ca6ac59	0.020345854
38	0x3df9f44d	0.122048
39	0xbd4fea47	-0.050760534
40	0x3ded21f2	0.1157874
41	0xbe1f1c5d	-0.15538163
42	0xbe37a492	-0.17933872
43	0xbea32056	-0.31860608
44	0x3da6bf17	0.08141916
45	0xbdd64229	-0.10461838
46	0x3dfcace6	0.12337665
47	0xbe8fc62a	-0.28080875
48	0xbda14dee	-0.07876192
49	0x3e95942b	0.29214606
50	0xbd927546	-0.071512744
51	0xbe877590	-0.2645688
52	0x3e912481	0.28348163
53	0xbeb41be7	-0.35177538
54	0xbe36d010	-0.17852807
55	0x3e61a36f	0.22035001
56	0x3df61a24	0.12016705
57	0x3d8cf438	0.068825185
58	0xbe8c15ee	-0.2736048
59	0xbe182176	-0.14856514
60	0xbe9ba55d	-0.303996
61	0x3e5e0c46	0.2168437
62	0x3e971e26	0.2951519
63	0x3e40e0d6	0.18835768

fc2.weight f4 [64, 64]
0	0xbd8e65fe	-0.06953047
1	0x3d20ee64	0.039289847
2	0x3c8360f3	0.01603744
3	0x3c12e498	0.008965634
4	0x3dbd9711	0.09257329
5	0x3ad44e58	0.0016197665
6	0x3db604a8	0.08887607
7	0xbd057b02	-0.032588013
8	0xbd065cab	-0.03280322
9	0xbc2a1a6e	-0.010382278
10	0x3dcabf80	0.09899807
11	0xbd981764	-0.074263364
12	0xbd56ea13	-0.052469324
13	0xbd2c4dbc	-0.04206632
14	0xbd9187fb	-0.07106014
15	0xbdee9694	-0.11649814
16	0x3c22e11f	0.009941368
17	0xbdcd9897	-0.1003887
18	0xbdb7fc4b	-0.08983668
19	0xbdc6f73e	-0.097151265
20	0x3bb6bf50	0.0055770054
21	0xbd5b1c7a	-0.053493954
22	0xbc8a0382	-0.016847376
23	0x3e073153	0.1320241
24	0xbdce3a89	-0.100697584
25	0x3dd45717	0.103681736
26	0xbc12ea08	-0.00896693
27	0xbcc3f4eb	-0.023920497
28	0xbd649af1	-0.055811826
29	0x3c8c7efe	0.017150398
30	0xbde0ce01	-0.10976792
31	0xbd6b3ebd	-0.05743288
32	0x3da77d71	0.08178223
33	0xbd997e11	-0.074947484
34	0xbd6a0a84	-0.057138935
35	0xbb5af6ed	-0.003341134
36	0x3d19f263	0.037584674
37	0xbdb659d8	-0.08903855
38	0x3db242c9	0.087041445
39	0x3e013f93	0.12621908
40	0x3dd618b2	0.10453929
41	0xbcdf1043	-0.027229434
42	0xbdfa0681	-0.12208272
43	0xbd186c09	-0.037212405
44	0xbc3b9546	-0.011449164
45	0x3d0cbc8e	0.034359507
46	0x3c08d2ab	0.008351008
47	0x3d26a624	0.040685788
48	0xbd01ca68	-0.03168717
49	0x3e059102	0.13043597
50	0xbbee38b0	-0.0072699413
51	0x3d94c55d	0.072642066
52	0xbd76c190	-0.06024319
53	0x3dd7b78e	0.10533057
54	0xbddc84bc	-0.107675046
55	0xbd9f5642	-0.07780124
56	0x3ddf9cc3	0.10918572
57	0x3d5ce8db	0.053933006
58	0xbdba77d8	-0.0910489
59	0xbd2a38fb	-0.041558247
60	0xbdbdb78d	-0.09263525
61	0x3cc43e33	0.02395544
62	0x3c1d5b93	0.0096043525
63	0xbdfbe6b2	-0.12299861
64	0xbc17e75d	-0.00927147
65	0x3dcae3e0	0.09906745
66	0x3d8d6daa	0.069056824
67	0xbd80aa4f	-0.06282484
68	0x3d6a405c	0.057190284
69	0xbcd13759	-0.025539087
70	0xbdc214e8	-0.09476644
71	0xbd891244	-0.06692937
72	0xbd96c22d	-0.07361255
73	0xbdf2c4b2	-0.11853923
74	0xbda77764	-0.08177069
75	0x3de87e5b	0.113522254
76	0xbe0d8ef0	-0.13824058
77	0x3cbd16d9	0.023082184
78	0x3d2e7554	0.04259236
79	0xbe03c7cf	-0.1286919
80	0x3b8b03ab	0.0042423806
81	0xbe0da792	-0.13833454
82	0xbdf4dea6	-0.11956529
83	0x3d1db8d1	0.038506333
84	0x3db97a5f	0.090565436
85	0x3dec64ff	0.11542701
86	0x3cfa2260	0.03053397
87	0x3d0e0704	0.03467466
88	0xbdd6657d	-0.10468576
89	0xbc83f013	-0.016105687
90	0x3d70bf96	0.05877646
91	0xbd459cd8	-0.04824528
92	0x3c2c68d1	0.010523037
93	0xbdb97b57	-0.09056728
94	0x3df36de5	0.11886195
95	0x3d360a03	0.04444314
96	0x3d894abb	0.06703707
97	0x3d922eb8	0.07137817
98	0x3ddbade5	0.10726527
99	0x3dbeeed2	0.09322895
100	0x3d9f9119	0.07791347
101	0xbd295cd8	-0.04134831
102	0xbd6b2338	-0.057406634
103	0xbdedbb13	-0.11607947
104	0x3cbdc6aa	0.02316602
105	0xbd8ff43b	-0.07029005
106	0x3d4ae972	0.049539037
107	0x3db4bcab	0.08825048
108	0x3d0d3f3f	0.034484144
109	0xbd83b7c4	-0.06431535
110	0x3cc6b7f4	0.024257638
111	0xbdbc48e5	-0.09193591
112	0xbdf44a38	-0.119282186
113	0xbd9b2f9f	-0.075774424
114	0x3dab93d3	0.083778046
115	0xbd5f2c9d	-0.054485906
116	0xbbbdcbe7	-0.0057921293
117	0xbdf448ee	-0.11927973
118	0xbda9cb53	-0.08290734
119	0x3d9a14bf	0.07523488
120	0x3de9a1f7	0.114078455
121	0xbe1ae2fa	-0.15125647
122	0x3bf4c50c	0.007469779
123	0x3dba06ba	0.09083314
124	0xbdbc056d	-0.091807224
125	0xbd1cb5bb	-0.03825925
126	0x3c4d2c99	0.01252284
127	0x3cfc7626	0.030818056
128	0x3db24a6c	0.08705601
129	0x3d95463a	0.07288785
130	0xbd113b9e	-0.035457246
131	0x3da1d5c0	0.07902098
132	0x3d64e2bc	0.055880293
133	0x3dd3a48f	0.103341214
134	0x3dc9a559	0.09845991
135	0x3d10abd6	0.035320126
136	0x3db49154	0.08816782
137	0x3cc3a5bf	0.023882745
138	0xbcc10ef0	-0.023566693
139	0x3dca61d8	0.098819435
140	0xbd356adb	-0.04429136
141	0xbd33bb12	-0.043879576
142	0x3d990858	0.074722946
143	0xbdce503c	-0.10073897
144	0x3ddec1fc	0.10876843
145	0xbbb5c280	-0.005546868
146	0x3df7b9ec	0.12096009
147	0x3ddacac9	0.106832094
148	0xbd18c0fb	-0.037293416
149	0xbdae6129	-0.085146256
150	0xbbef0a26	-0.007294911
151	0x3d541f97	0.05178794
152	0xbd9562c8	-0.07294232
153	0xbdff4738	-0.12464756
154	0x3df0b50d	0.11753283
155	0xbdda7901	-0.10667611
156	0x3d1067c5	0.035255212
157	0x3d529216	0.05140885
158	0xbcca0780	-0.02466178
159	0xbd05898a	-0.03260187
160	0x3ba45428	0.005014915
161	0x3d4b0698	0.049566835
162	0xbd62c570	-0.055364072
163	0xbde0211c	-0.10943815
164	0xbd6f3235	-0.05839749
165	0xbdf7cf6c	-0.121001095
166	0xbdc4548b	-0.09586438
167	0x3ca28587	0.019839061
168	0x3d684264	0.05670394
169	0x3d66662f	0.056249794
170	0x3daee5df	0.08539938
171	0x3d9b61db	0.07587024
172	0x3dfefd44	0.1245065
173	0x3d167d4d	0.03674059
174	0x3d6f92e9	0.058489714
175	0xbcc2c131	-0.023773761
176	0xbdd17bf8	-0.10228723
177	0xbc2859be	-0.010275302
178	0xbd421011	-0.047378603
179	0xbdaea4b7	-0.085275106
180	0x3d5ecd6a	0.054395117
181	0x3da3f7ad	0.08006225
182	0x3de839b4	0.11339131
183	0xbc8d4080	-0.01724267
184	0x3b7bfe21	0.0038451033
185	0x3d1ceb40	0.03831029
186	0xbd34ef8d	-0.044173766
187	0x3d101e22	0.035184987
188	0xbd0fb457	-0.035084095
189	0xbd83062e	-0.06397663
190	0x3d021ce3	0.03176583
191	0x3d7a1577	0.061055627
192	0x3dab1f9a	0.08355637
193	0xbdc5e5f3	-0.09663
194	0xbb6553ad	-0.0034992502
195	0x3d623fd3	0.05523665
196	0x3de1535c	0.11002228
197	0xbdcdae87	-0.10043054
198	0xbdbd7918	-0.092516124
199	0x3c9c8acf	0.019109158
200	0xbdc2d1c8	-0.09512669
201	0xbe16cd80	-0.1472683
202	0xbd3bcaaa	-0.045847572
203	0xbd56dc5d	-0.05245625
204	0x3cf89740	0.03034556
205	0x3cd4f4dd	0.025995666
206	0xbd8663d9	-0.06562013
207	0x3d703bc7	0.058650758
208	0xbd62e898	-0.0553976
209	0xbdb8cd95	-0.09023587
210	0x3d85eec2	0.0653968
211	0x3d8bcd6c	0.068262905
212	0xbdda6a7a	-0.1066484
213	0x3cd2dc17	0.025739713
214	0x3b5b9f6c	0.003351177
215	0xbddd06d6	-0.107923195
216	0xbdb38a3a	-0.08766599
217	0xbda2f16a	-0.07956202
218	0x3c99e797	0.018787188
219	0x3db8639c	0.09003374
220	0xbdbc6659	-0.09199209
221	0x3de0d9b1	0.10979021
222	0x3de5133a	0.11185308
223	0x3dd1d84a	0.10246332
224	0x3ca151d3	0.019692337
225	0x3d69b722	0.057059415
226	0xbe133164	-0.1437431
227	0xbda80453	-0.0820395
228	0xbdae4b77	-0.085104875
229	0xbdbfa92e	-0.0935844
230	0x3dcebb48	0.10094315
231	0x3d6f5566	0.05843105
232	0xbd9344ac	-0.071908325
233	0xbc812b69	-0.01576777
234	0xbc7262a0	-0.014794022
235	0x3ddf1dd8	0.10894364
236	0x3da9f3aa	0.08298428
237	0xbd89f7ab	-0.06736692
238	0x3dcc2bb2	0.09969272
239	0xbd9a4794	-0.07533184
240	0x3dad57e6	0.08464031
241	0x3d39ddc1	0.045377497
242	0x3dbb9aff	0.091604225
243	0xbd898b8a	-0.06716068
244	0x3de1ca2a	0.11024888
245	0xbd9ab28d	-0.07553587
246	0x3d849462	0.06473614
247	0xbd7d28ee	-0.06180661
248	0xbdc39826	-0.095505044
249	0x3cb6cc75	0.02231429
250	0xbd089510	-0.033345282
251	0x3c62a7b2	0.013833927
252	0xbddff18e	-0.10934745
253	0x3cbc57d1	0.022991093
254	0x3dd9ca08	0.106342375
255	0x3d485dc7	0.048917558

fc2.bias f4 [64]
0	0x3d66d4df	0.056355353
1	0xbe00a0c1	-0.12561323
2	0x3cc9324d	0.024560118
3	0x3df0d0c1	0.11758567
4	0x3da8488f	0.082169645
5	0x3d9960d5	0.07489172
6	0x3db359d9	0.087573715
7	0xbdd9d4c1	-0.10636283
8	0xbcbba12b	-0.022904
9	0xbc2193a6	-0.009861862
10	0xbcc424a2	-0.02394325
11	0xbd0a9d58	-0.03384146
12	0xbdf5dc0a	-0.1200486
13	0xbdae21a3	-0.085025094
14	0x3e02616f	0.1273248
15	0x3db7cd62	0.089747205
16	0x3d3342e9	0.043764982
17	0xbd278418	-0.04089746
18	0xbcda9b1b	-0.026685288
19	0xbe120479	-0.14259519
20	0xbda41642	-0.08012058
21	0x3d35f660	0.044424415
22	0x3d5a7f5e	0.053344123
23	0x3d4ab0c0	0.04948497
24	0x3d29d5b4	0.04146357
25	0xbdaff78d	-0.085921384
26	0xbd4a930b	-0.049456637
27	0xbdbb6ed8	-0.09152001
28	0x3db77c6a	0.08959277
29	0x3da96ae0	0.08272338
30	0x3d0c686d	0.034279276
31	0xbded8b95	-0.11598889
32	0xbd582621	-0.052770738
33	0x3d7baf90	0.061446726
34	0xbe023254	-0.12714511
35	0xbdba88bd	-0.09108112
36	0x3d6afb95	0.057368834
37	0x3ddf9df4	0.10918799
38	0xbd9aeabf	-0.075643055
39	0xbd75ba6f	-0.05999225
40	0xbd37c07a	-0.044861294
41	0x3dc0fcfb	0.09423252
42	0x3d714fdb	0.058914047
43	0xbd5e0280	-0.054201603
44	0xbe170ab5	-0.14750178
45	0xbd1eb603	-0.0387478
46	0x3d9da642	0.07697727
47	0xbd602fa7	-0.054732945
48	0x3deb8a3e	0.11500977
49	0xbb77dd66	-0.0037821173
50	0x3ca439ee	0.020047154
51	0x3d0143ae	0.031558685
52	0x3cfe6150	0.031052262
53	0x3d97bca6	0.07409029
54	0xbdcfd70c	-0.10148439
55	0x3ddb2ba5	0.10701684
56	0x3d8317e3	0.064010404
57	0xbcf360fc	-0.029709332
58	0x3db94077	0.09045499
59	0xbda384c2	-0.07984306
60	0x3ce1f4b0	0.027582496
61	0xbd6c4a64	-0.057688132
62	0x3df20445	0.118172206
63	0xbdee64d2	-0.11640324

fc3.weight f4 [11, 64]
0	0x3da09b00	0.07842064
1	0x3d8ebcd8	0.06969613
2	0xbe0019c5	-0.1250983
3	0xbc10df15	-0.008842249
4	0x3d73b10f	0.059495028
5	0xbd03a0f2	-0.03213591
6	0xbd9a79fc	-0.07542798
7	0xbc96c0a9	-0.018402414
8	0xbd9c8b77	-0.07643788
9	0x3d070996	0.032968126
10	0xbd9d33fd	-0.076759316
11	0x3de5e822	0.112259164
12	0xbded196a	-0.11577113
13	0xbde84fac	-0.11343321
14	0xbd1b1ba5	-0.03786816
15	0x3db0d11b	0.08633634
16	0xbb0ceec2	-0.0021504615
17	0x3d60bac8	0.05486563
18	0xbb61403a	-0.0034370557
19	0xbd8c28b6	-0.068437025
20	0x3d1aebfd	0.037822712
21	0x3c33e860	0.0109806955
22	0xbda745f7	-0.081676416
23	0xbdd3e2d2	-0.10345997
24	0x3ddb8b05	0.10719875
25	0xbdb74dc5	-0.0895038
26	0xba66646c	-0.0008788768
27	0xbd99221f	-0.07477211
28	0xbe0133ce	-0.12617418
29	0x3d169e89	0.036772285
30	0x3db55040	0.08853197
31	0x3c92e1bf	0.01792991
32	0x3c9d2469	0.0191824
33	0xbda056ac	-0.07829031
34	0xbda568dd	-0.08076642
35	0xbe0596e6	-0.13045844
36	0x3dcb0c1b	0.09914418
37	0xbced8964	-0.028996177
38	0x3de0f40c	0.10984048
39	0x3c331856	0.010931095
40	0xbdb285ad	-0.08716903
41	0xbd2f5197	-0.04280242
42	0x3d4036a5	0.046927113
43	0x3daba7d3	0.08381619
44	0x3d1c981a	0.038230993
45	0x3d30ed2b	0.04319493
46	0x3be24c71	0.006906085
47	0x3dbe1261	0.09280849
48	0xbd611b7a	-0.054957844
49	0xbdcac3e7	-0.09900647
50	0x3dcb9d7f	0.09942149
51	0x3ca18ac9	0.019719498
52	0xba91104f	-0.0011067482
53	0x3c7ac179	0.015304917
54	0xbd0a945a	-0.033832885
55	0xbda7cc6b	-0.081932865
56	0x3be1d6f2	0.0068920786
57	0xbdab9c24	-0.08379391
58	0xbd22856c	-0.039678022
59	0xbdbba076	-0.09161465
60	0x3dadaa37	0.084797315
61	0x3ba1a37c	0.004932819
62	0xbcf63064	-0.030052371
63	0xbdfbe5f9	-0.12299723
64	0x3da47507	0.08030134
65	0xbdbbc691	-0.09168733
66	0xbdc00977	-0.09376805
67	0x3dc81233	0.09769096
68	0x3d08b900	0.033379555
69	0xbdf33bf6	-0.11876671
70	0x3d72bc6d	0.059261728
71	0xbd231caf	-0.039822277
72	0xbd74e12d	-0.059785057
73	0xbd2003aa	-0.039065994
74	0xbdc91846	-0.09819083
75	0x3d9a27a7	0.07527094
76	0xbe0fab5c	-0.14030212
77	0xbd818306	-0.06323819
78	0x3db2183a	0.08696027
79	0xbd89faf8	-0.067373216
80	0x3d600067	0.054687884
81	0xbdb13c8b	-0.08654126
82	0xbd74c8a6	-0.059761666
83	0x3d79f907	0.061028507
84	0x3e040486	0.1289235
85	0xbd4f9a74	-0.050684407
86	0xbde97777	-0.11399739
87	0x3d9abecb	0.07555922
88	0xbd7301ac	-0.059327766
89	0x3d95b288	0.07309443
90	0xbd64e512	-0.05588252
91	0xbc328232	-0.010895299
92	0x3c96d719	0.018413113
93	0x3d7756b5	0.060385425
94	0xbd6b5b2a	-0.057459988
95	0x3d4ee5de	0.050512187
96	0xbddd7ad2	-0.10814442
97	0x3d5ed0f4	0.054398492
98	0x3ddaac23	0.10677364
99	0xbd71c4fc	-0.05902575
100	0xbd88b089	-0.066742964
101	0xbd7044f3	-0.058659505
102	0x3d972aba	0.07381196
103	0xbd677184	-0.05650474
104	0x3dae9719	0.08524913
105	0xbda33a40	-0.07970095
106	0x3cb937a2	0.022609536
107	0x3bcc3726	0.00623216
108	0x3da006c7	0.07813793
109	0x3bc8eb3f	0.006131559
110	0x3dbb5e45	0.0914884
111	0xbdaacd98	-0.08339995
112	0x3d9dc916	0.0770437
113	0xbc9aa1b7	-0.01887594
114	0xbd6d7bfb	-0.057979565
115	0xbd32ef10	-0.04368502
116	0x3d4183f0	0.047244966
117	0xbdab627a	-0.08368392
118	0x3d266087	0.0406194
119	0xbd790f30	-0.0608055
120	0xbd901b85	-0.07036499
121	0xbdb08901	-0.086198814
122	0x3cac3ae4	0.021024175
123	0xbc315ab0	-0.010824844
124	0x3c7e6ff8	0.015529625
125	0x3c8a1bd6	0.016858976
126	0x3dd606bb	0.104505025
127	0x3da95a2b	0.08269151
128	0x3c11b0ad	0.00889222
129	0xbd36ea43	-0.044657003
130	0xbcb5a0bb	-0.022171369
131	0xbdabcfe8	-0.08389264
132	0xbc615ce9	-0.013755062
133	0xbca08651	-0.019595297
134	0xbdc81fee	-0.09771715
135	0xbd3cacfd	-0.046063412
136	0xbcd1ea04	-0.025624283
137	0xbdc522aa	-0.09625752
138	0xbd4eb812	-0.050468512
139	0x3d7123a8	0.058871895
140	0xbdfcd18c	-0.123446554
141	0x3d6b24a4	0.05740799
142	0xbdc1c90e	-0.09462176
143	0xbcdc99d4	-0.02692882
144	0x3dd7be81	0.105343826
145	0xbde678db	-0.1125352
146	0xbd79d804	-0.060997024
147	0x3bfee84b	0.0077791563
148	0x3e040e87	0.12896167
149	0xbd84e9b0	-0.06489885
150	0x3d3083f2	0.043094583
151	0x3d657347	0.05601814
152	0x3d49e7c3	0.04929329
153	0xbd7b92bb	-0.06141923
154	0xbd0ad8ef	-0.03389829
155	0xbd80f411	-0.06296552
156	0xbab19672	-0.0013548865
157	0xbde60e03	-0.11233141
158	0x3d80f79b	0.06297227
159	0xbd4158b7	-0.047203746
160	0x3dc520e1	0.09625412
161	0xbdd6a05d	-0.104798056
162	0x3d85187d	0.064988114
163	0xb9346e8e	-0.00017207323
164	0xbdbca446	-0.0921102
165	0xbda80ed6	-0.08205955
166	0x3dc9042d	0.098152496
167	0xbd4bb3f9	-0.049732182
168	0xbdfab0b1	-0.122407325
169	0x3dbb0233	0.09131279
170	0x3dbb6403	0.09149935
171	0x3cc1e150	0.023667008
172	0xbd2e4925	-0.042550225
173	0x3dad4c50	0.08461821
174	0xbd57430c	-0.052554175
175	0xbc174e54	-0.0092349835
176	0x3ce62347	0.028092993
177	0xbda9d34e	-0.08292256
178	0x3db7d8ec	0.089769214
179	0xbcdf332f	-0.027246086
180	0x3d31d320	0.043414235
181	0x3dca394e	0.09874211
182	0x3c69ca1c	0.014269378
183	0x39f5a63f	0.00046853904
184	0xbdb0cdbd	-0.086329915
185	0xbdddc884	-0.10829261
186	0x3d4961e4	0.04916562
187	0xbdce1e20	-0.1006434
188	0x3dce07d7	0.10060089
189	0x3ce15b84	0.027509458
190	0x3d700b0a	0.058604278
191	0xbddb7e41	-0.107174404
192	0xbdbac756	-0.091200516
193	0x3c1772d8	0.0092436895
194	0xbd63178d	-0.05544238
195	0xbcc2025f	-0.023682771
196	0x3db73e17	0.089473896
197	0xbdf7cae1	-0.12099243
198	0xbd9192b5	-0.0710806
199	0x3cf9108e	0.030403402
200	0x3db850ae	0.089997634
201	0xbddb3655	-0.107037224
202	0x3d48119b	0.048844915
203	0x3df4995c	0.119433135
204	0xbe085447	-0.133134
205	0x3d5bf2ff	0.053698536
206	0x3c04c52c	0.00810365
207	0x3d1dab4d	0.038493443
208	0x3d9087a9	0.07057125
209	0x3d0eeac0	0.034891844
210	0xbe0bda9c	-0.13657612
211	0xbcbd7406	-0.023126613
212	0xbd3897e6	-0.045066737
213	0xbd8bbc46	-0.0682302
214	0xbcf5438a	-0.029939432
215	0xbd925bec	-0.07146439
216	0xbde33e32	-0.11095847
217	0x3c920312	0.01782373
218	0x3dbc6ccf	0.09200441
219	0x3d527fbc	0.05139135
220	0xbd05fc71	-0.03271145
221	0x3dab3aa1	0.08360792
222	0xbdd819ec	-0.10551819
223	0x3d74f8f1	0.05980772
224	0xbc8c57f9	-0.017131792
225	0xbcf458d9	-0.029827522
226	0x3d1a7907	0.037713077
227	0x3d1d144a	0.038349427
228	0xbc5f3d6a	-0.013625482
229	0x3d5b4988	0.05353692
230	0xbd7985e1	-0.060918692
231	0xbc6f4a33	-0.014605093
232	0xbca0476d	-0.019565308
233	0xbc7f95b1	-0.015599654
234	0xbc831776	-0.016002398
235	0x3ac74cfb	0.0015205437
236	0xbdc5dd12	-0.096613064
237	0x3d787707	0.06066039
238	0x3c8ad6a5	0.016948054
239	0x3db1c9d9	0.086810775
240	0xbd870da8	-0.065944016
241	0x3d3d50b8	0.046219558
242	0xbdb30c3e	-0.087425694
243	0xbd06a42a	-0.032871403
244	0xbdbb508f	-0.09146225
245	0xbc9f718e	-0.019463327
246	0x3db8ba34	0.090198904
247	0x3bf7154d	0.007540381
248	0xbd293d8d	-0.041318465
249	0xbd2db51b	-0.042409044
250	0x3d35c8cf	0.04438096
251	0x3dea1cea	0.11431296
252	0xbe055d12	-0.13023785
253	0xbd00bbc8	-0.031429082
254	0xbd7eca3c	-0.062204584
255	0x3d5ee330	0.05441588

fc3.bias f4 [11]
0	0x3dc11abe	0.09428929
1	0xbdbbb8cc	-0.091661066
2	0x3d946b64	0.07247046
3	0x3d82351c	0.06357786
4	0x3dc470ca	0.09591825
5	0x3dc99db1	0.098445304
6	0x3c5708b7	0.013124636
7	0xbd3647a3	-0.04450191
8	0xbc53044f	-0.012879445
9	0xbd77b4f2	-0.060475297
10	0xbdbf8ceb	-0.0935305
