Final_Submission/trading-GYM/PPO-BEST-WEIGHTS/best_highest_ppo_value_model_weights.pth (torch, 22186 bytes, 5 tensors)

fc1.weight f4 [64, 8]
000000 09 79 ef bc 81 62 02 3e 76 e9 3b 3e 68 75 c4 3d
       -0.029232519 0.12732889 0.18350777 0.09592706
000010 d2 32 84 be 37 32 68 3e 73 cf c3 bd e3 3c ad 3d
       -0.25820023 0.22675405 -0.09561052 0.08458879
000020 e9 ee c5 3d 7a dd 6f be fb 5b ed bd ba 7e 54 bc
       0.09664709 -0.2342433 -0.115898095 -0.012969667
000030 00 20 25 3d 5d 0b 65 3e be bc 5c be e5 39 73 3e
       0.04031372 0.22367616 -0.21556374 0.23752554
000040 e5 88 a7 3c 6b 67 11 bd 4c c5 33 3e 7c 84 0f 3d
       0.020451019 -0.035499018 0.17555732 0.035038456
000050 f4 a7 3f bd 00 54 8c 3e 5e cc a5 bc bc fd 4b be
       -0.046791032 0.27407837 -0.020239051 -0.1992101
000060 c8 fe 9f be b8 90 1a be 90 2c 63 3d c0 05 51 be
       -0.3124907 -0.15094268 0.05546242 -0.2041235
000070 1e 22 07 3e 98 2a bf 3d b9 86 a4 bd 40 7e 8d 3d
       0.13196608 0.09334296 -0.08033509 0.06908846
000080 ae 20 93 3e fa 92 e0 bd 3d 88 ac 3c 43 27 e9 3c
       0.2873587 -0.109655336 0.021061057 0.028461104
000090 b4 04 a4 3c ef c3 93 39 7c 8a 52 be 28 64 cf 3d
       0.020021774 0.00028184007 -0.2056064 0.10126525
0000a0 1c 47 98 be 6d eb 9b 3e 0e f4 09 3e 0a d6 cd bd
       -0.29741752 0.30453053 0.13472006 -0.1005059
0000b0 6a 08 8c be 39 68 a9 3d 5f 6d 7a 3e 1b f8 7c be
       -0.2735017 0.08271832 0.24455784 -0.2470402
0000c0 6d a6 8a 3d 51 1a 1c be 0b c0 cc bb 34 4f 31 3d
       0.067700244 -0.15244414 -0.0062484792 0.043288425
0000d0 8f ee 1f 3d d4 06 bf be d1 f6 a6 bc 68 4a 0f be
       0.039045867 -0.37309897 -0.020381363 -0.13993227
0000e0 93 4d 95 3e 15 d4 01 3b da 95 71 bd 58 9a 26 3e
       0.29160747 0.0019810249 -0.0589808 0.16269815
0000f0 61 7a 9b bd ef 5b 36 bc 65 1c 7b 3d d9 d4 90 bd
       -0.07591701 -0.011130317 0.061306376 -0.070718475
000100 a5 8d 52 3e b3 c3 59 3c eb 08 8e bd 2b f7 e0 3d
       0.20561846 0.013291287 -0.06935295 0.109846435
000110 d2 5f 71 3d e3 35 10 3c 20 00 a0 3d 52 0b 5d be
       0.058929272 0.00880191 0.07812524 -0.2158635
000120 b9 3e ea 3c dd 5d 87 3e a9 ce 64 3e 8c 9d 01 3c
       0.028594362 0.264388 0.2234446 0.007911097
000130 0e 08 58 be 78 3f 3e 3d a7 60 c8 3d 88 a8 bc bc
       -0.21096823 0.046447247 0.0978406 -0.02302958
000140 43 48 e0 3d 16 88 19 be 7b 2f bb bc 43 dd f2 3d
       0.10951283 -0.14993319 -0.022849789 0.118586086
000150 f8 f5 33 3e 40 30 76 be 8c 8d 4d 3e ac 91 62 be
       0.17574298 -0.24041843 0.20073527 -0.22125882
000160 7b 2e 7c 3e 55 5a 0f be d5 e8 8b be 8d a9 8f 3e
       0.24627106 -0.13999303 -0.27326074 0.28059044
000170 c1 20 98 be ac 09 84 be 5f 83 1b 3e b9 b2 f1 bd
       -0.2971249 -0.2578863 0.15186833 -0.11801667
000180 dd 13 2d 3e df d6 a5 be 4c 32 5d be c7 34 4f be
       0.16902108 -0.32390496 -0.21601218 -0.20234977
000190 36 f1 10 3e a5 ae 2b bd ba 62 69 3c a2 0f c1 3d
       0.14154515 -0.0419146 0.01424473 0.0942681
0001a0 07 15 7f 3e b0 70 a3 bd 26 74 2d 3e 72 f0 b8 3b
       0.24910365 -0.07980478 0.16938838 0.0056438977
0001b0 2e 6c 06 bd dd 06 79 3e 56 48 3c be 97 9f 15 bc
       -0.032818012 0.24319024 -0.18386969 -0.009132287
0001c0 dd 8c 88 3e 1c 35 4b be c8 7b 98 3e cb a0 e9 bd
       0.2666997 -0.19844478 0.29781938 -0.11407622
0001d0 f5 02 49 bd b1 ed 9b be c5 56 1f 3e 5e 05 24 be
       -0.049075086 -0.30454782 0.15560444 -0.16017672
0001e0 bd bc a7 be c8 5a 24 3e 06 ff cd 3c 1f 95 8f 3d
       -0.32761183 0.16050255 0.025146019 0.070108645
0001f0 3d 5f 12 3e 3a 52 5a 3e c1 c7 87 3e 53 05 8a be
       0.14294143 0.2132043 0.26519588 -0.26957187
000200 1a c4 66 3d 56 72 a7 bc a6 b3 8a be 36 67 72 be
       0.05633936 -0.020440262 -0.27090186 -0.23672184
000210 66 3e 5a 3e 98 62 1f 3e 35 46 7d be 10 52 08 3e
       0.21312866 0.15564954 -0.24733813 0.13312554
000220 86 5e 42 3e 7c 1a 47 bd d2 1d 85 bd b1 1e aa bd
       0.1898137 -0.04860924 -0.064998284 -0.08306635
000230 7a 8b a2 3e 5b a0 92 bc cc a9 6f be 90 8e 20 3e
       0.31747037 -0.01789873 -0.23404616 0.15679383
000240 9e 25 e9 3d 9e 38 bf 3d 3b ae e2 bd d6 8a a4 be
       0.11384128 0.09336971 -0.11068388 -0.32137173
000250 ec 79 83 be 25 bd 9e 3e 9b 73 6c be 6f 8c 20 3e
       -0.25678957 0.3100368 -0.23090975 0.15678571
000260 f8 38 ef bd 11 e1 41 3e 98 51 00 3c 69 62 9c bd
       -0.11680788 0.18933512 0.0078319535 -0.07635958
000270 5b ca 90 3d 7b c6 13 be 29 16 49 bc 8a 45 bd bd
       0.07069846 -0.14431183 -0.01227335 -0.09241779
000280 d4 82 6d be 1e 98 18 3e eb 33 5f 3e 81 cb 66 be
       -0.23194438 0.14901778 0.21797149 -0.22538568
000290 13 fc f4 bd 1a 77 96 bc 42 5c 5b be 53 08 ee 3d
       -0.11962142 -0.018367339 -0.21421912 0.116226815
0002a0 01 27 91 3e aa 22 99 3e 84 75 b0 3d 85 06 90 be
       0.2835007 0.2990926 0.08616164 -0.28129974
0002b0 52 57 2c bb 8d 0b 47 3e bd d4 1d 3e 90 2c 10 bc
       -0.0026297164 0.19438 0.15413184 -0.008799687
0002c0 98 e4 31 be 33 47 65 bd 48 68 9c be dc 5e 46 3e
       -0.17372358 -0.055976104 -0.3054831 0.19372123
0002d0 aa 18 53 3e 42 e6 e2 3d 1b bf 19 be b1 f3 d0 3d
       0.20614877 0.110790744 -0.15014307 0.102027304
0002e0 7f c5 a8 bd b1 0e 1b 3e 94 14 db 3d ef 94 e1 3d
       -0.082407944 0.15142323 0.10697284 0.11014735
0002f0 d9 6e d6 3d f5 27 a1 be c5 c2 a2 bc f9 bd a7 bd
       0.10470361 -0.31475797 -0.019868264 -0.08190531
000300 ac b1 47 bd b1 cf ed 3d 7c 2e e8 bd f3 fb 5a be
       -0.048753425 0.116118796 -0.11336991 -0.21385173
000310 1c ac 81 be ed f7 56 3e a6 ef 92 3d 22 e7 fe 3c
       -0.25326622 0.20993014 0.071746156 0.031116072
000320 b0 4f 4f be 6f 7b 20 3e 2f 57 de bd 33 2d 32 be
       -0.20245242 0.15672086 -0.10856473 -0.17400055
000330 d2 10 0a be 6b 59 b8 3c bc d3 25 bc 6c f9 21 bd
       -0.13482979 0.022503575 -0.010121282 -0.039544508
000340 f9 a5 15 be 8f 1f 16 be b4 55 05 be ed 20 b7 be
       -0.14614095 -0.14660476 -0.13020974 -0.35767308
000350 66 b0 40 be 45 58 03 bd fc b7 47 be 1e 48 bd 3d
       -0.1881729 -0.032066602 -0.19503778 0.09242271
000360 ab 45 0e 3e 3c 4b 39 3e c9 21 a4 3e 13 ea a2 be
       0.13893764 0.18095106 0.32057026 -0.3181921
000370 d3 b9 64 be 89 80 c3 3c e1 1d 60 be 6b a3 55 3e
       -0.22336511 0.023865001 -0.21886398 0.2086312
000380 90 af 4b be 01 0e 2f be ef dd 69 be 09 21 5e be
       -0.1989119 -0.17095186 -0.22838567 -0.2169229
000390 ad df 37 be 53 d3 69 3c 0d cf aa bc a3 3d c4 3d
       -0.1795642 0.014271575 -0.020850683 0.09582069
0003a0 6a ea 8e 3c b5 a5 7f 3e 00 7a 46 be 95 e1 9f 3e
       0.017445762 0.24965556 -0.19382477 0.31226793
0003b0 59 84 61 3e 9b 4c 29 3e b2 01 8e 3e cb a1 4c be
       0.22023143 0.16533129 0.27735668 -0.19983594
0003c0 9d b7 59 3d 69 79 2c be 5f 64 23 be c3 fe 45 bc
       0.053153623 -0.1684319 -0.15956257 -0.012084666
0003d0 1c 14 35 3e 71 be 54 3e 15 2c a3 3d 20 22 47 3e
       0.17683452 0.20775773 0.07967392 0.19446611
0003e0 01 c0 16 3d e5 6b 76 bd 1d 7d 86 3e 6d a5 6c 3e
       0.036804203 -0.06016149 0.2626733 0.2310998
0003f0 3c ef 68 be cf 02 4c be f5 97 c8 bd d6 83 15 3e
       -0.2274751 -0.19922946 -0.097946085 0.14601073

fc1.bias f4 [64]
000000 01 67 d2 bc 75 a7 d6 3d 77 d1 47 3e 3f a9 ba 3d
       -0.025683882 0.10481159 0.19513498 0.091143124
000010 80 3d 55 3e 04 c3 ad 3d 77 53 56 be d2 37 4a be
       0.20824242 0.08484462 -0.20930277 -0.19747856
000020 43 35 38 be bf d9 b2 be 16 53 1d be a4 38 36 3e
       -0.17989068 -0.34931752 -0.15363726 0.17795044
000030 03 bc 93 3e 5f 3d 97 be 29 06 54 bd 75 cd ac 3e
       0.2885438 -0.2953901 -0.051763687 0.337505
000040 50 90 bd 3e 30 bb 68 3e f6 44 97 3e bf 58 ef bd
       0.37024164 0.22727656 0.295448 -0.11686849
000050 10 41 f3 bd 6f 4f a8 be e1 aa ea 3c 04 a8 88 3e
       -0.11877644 -0.32873103 0.028645935 0.26690686
000060 c3 79 c4 bc 7e 00 47 be 34 ab 86 bd 27 58 a7 3e
       -0.023983842 -0.19433782 -0.06575623 0.32684442
000070 4d 33 9b be e0 1c 74 3e 75 bb 4c bd 08 7a a1 be
       -0.30312577 0.2383914 -0.04998346 -0.31538415
000080 25 aa 62 3d b7 78 25 be f8 33 87 3e 35 3f aa 3d
       0.055338044 -0.1615933 0.26406837 0.08312837
000090 11 d3 44 be 49 d6 32 be 83 80 5a 3c bf 44 ae be
       -0.1922114 -0.17464556 0.013336304 -0.34036824
0000a0 90 ee 9d be e9 c0 ac bd 93 19 0b 3e 86 19 10 be
       -0.3084607 -0.08435232 0.13583975 -0.14072236
0000b0 67 59 3e be 6c 37 d6 bc 21 85 da bc 9e 84 5e 3d
       -0.18588792 -0.026149474 -0.026674809 0.054325692
0000c0 9b 63 01 bd da a6 8d 3e a2 94 a2 3e 85 26 14 be
       -0.03158913 0.2766636 0.31754023 -0.14467819
0000d0 17 2d a2 3e 82 7b 5e 3e 51 c8 be be d4 c9 80 3e
       0.31675026 0.21726802 -0.37262204 0.25153983
0000e0 43 59 94 3c a6 79 f9 3c 1d 0f a5 be ec 27 55 3e
       0.01810897 0.030453514 -0.32238093 0.2081601
0000f0 03 99 00 be 5e cf 60 be fc ca 87 3e 34 f2 94 3d
       -0.1255837 -0.21954104 0.26522052 0.07272759

fc2.weight f4 [64, 64]
000000 39 67 4f bd 86 9f 31 bd d9 2d 65 3d 97 d7 0a 3d
       -0.05063555 -0.043365024 0.055951927 0.03389701
000010 47 5f 19 3d 31 ca 04 bc bb e6 42 bc 52 64 15 be
       0.03744438 -0.008104847 -0.011895831 -0.1458905
000020 9f ff 1a be 22 cd 31 bd 97 33 08 be 65 2b a3 bd
       -0.15136574 -0.04340852 -0.1330093 -0.07967261
000030 28 27 ae bc ef 26 a7 bd 43 da 56 3d 96 74 ec bd
       -0.021258906 -0.08161723 0.052454244 -0.115456745
000040 5c c1 d6 3d 37 ef c2 3d 86 8d 95 bd 54 7b 9d bd
       0.10486099 0.09518283 -0.07302384 -0.076895386
000050 14 ec 94 bd bc 35 04 bb 1e 61 52 be 0a 7a 47 3d
       -0.07271591 -0.002017363 -0.2054486 0.04870037
000060 bf aa d9 3b ba d5 10 be 87 47 2b bd 3e 8c 5e bd
       0.006642669 -0.1414403 -0.04181626 -0.054332964
000070 31 2e b2 bd cf 68 5a be c8 b3 0c be 48 32 39 39
       -0.087002166 -0.21329044 -0.13740456 0.00017661706
000080 c2 0a 35 bd 71 f9 0e bd e0 88 4e 3d 8f a6 d1 3c
       -0.044199713 -0.034905855 0.050423503 0.025592117
000090 20 14 3c 3d 77 1c 37 3b 78 0d a8 bd 7a 26 65 3d
       0.04591763 0.002794055 -0.08205694 0.055944897
0000a0 9b 87 a9 bd 10 c7 4c 3b 34 ef fd 3d 30 03 67 3d
       -0.08277818 0.003124658 0.1239914 0.056399524
0000b0 d9 26 38 3d 39 b6 bf 3d 88 bf a2 bb a7 90 88 3d
       0.044958923 0.09360928 -0.00496668 0.06668215
0000c0 0a 7a 23 be dd 2c 81 bd aa cf 61 bd 50 b6 9a 3c
       -0.15964523 -0.06307385 -0.055129685 0.018885761
0000d0 4c 89 11 bd a7 70 57 bd 4d ad 66 bd 35 9f 17 3e
       -0.035531327 -0.052597668 -0.056317616 0.14806826
0000e0 b4 17 5b bd 03 59 e7 3d 26 b9 db bd ad 70 be 3d
       -0.053489402 0.112962745 -0.10728674 0.09298835
0000f0 ea 8d 5b bd c7 c0 c0 3d 93 8d 88 3d ee 9d a3 3c
       -0.053602137 0.09411769 0.06667628 0.019972768
000100 cb 62 b3 bb 01 9a e4 bd a3 5c 14 bd c5 1e 83 bd
       -0.0054744235 -0.111621864 -0.036221158 -0.06402353
000110 b3 f9 01 be eb ca 9b 3d 05 1f a1 bd 30 10 ea bd
       -0.12692909 0.07607063 -0.07867245 -0.11428869
000120 7f 9c 35 bd 74 e2 89 3c e2 91 1d 3c 9d 8f 7c bd
       -0.0443387 0.016831614 0.009617301 -0.061660398
000130 5e b5 c4 bc 03 04 fe bd 4e 24 92 3c 99 f4 bd bd
       -0.024012264 -0.12403109 0.017839577 -0.09275169
000140 45 64 a9 3d c1 38 cc 3d d0 6c c6 3d ff d7 81 bd
       0.08271078 0.099717624 0.09688723 -0.06340026
000150 26 ea 50 3d 0f cf fc bd a0 fc db 3c 1e cd 04 3d
       0.05100455 -0.12344181 0.02685386 0.032422177
000160 a3 44 f5 bb f4 bb bc bd 8c ca ac 3d 93 b8 05 3c
       -0.007484989 -0.09215537 0.0843707 0.008161682
000170 7a e8 3c 3d 41 9e 85 3d 0d 56 cf bd a6 11 83 bd
       0.046120144 0.06524325 -0.10123835 -0.063998505
000180 c3 78 ce 3d 04 71 06 be ee eb dd 3c 86 32 a7 bd
       0.10081627 -0.1312905 0.02709004 -0.081639335
000190 33 88 8b 3d c8 2d ee bd 70 fe 82 3d a1 ea b4 bd
       0.06813087 -0.11629826 0.06396186 -0.088338144
0001a0 bd 72 7e bc 38 18 06 3d fc f6 d8 3b 2f a6 3a 3d
       -0.015530285 0.03273794 0.0066212397 0.04556864
0001b0 e2 64 9f bd f6 05 fa bd 2f b9 56 bd e4 c4 ed b7
       -0.07782914 -0.12208168 -0.0524227 -2.8344286e-05
0001c0 2f 53 4a bd c4 51 36 3d e5 4d 72 3d 53 ab 87 bb
       -0.049395736 0.04451157 0.059156317 -0.0041402965
0001d0 80 15 83 bd 59 68 82 3d 4a c7 41 3d 16 2f 21 bd
       -0.06400585 0.06367559 0.047309197 -0.039351545
0001e0 a6 bf 52 bc 4d 86 d8 bd 87 93 29 3d c5 87 5e 3d
       -0.012863075 -0.10572491 0.04140046 0.0543287
0001f0 49 8e de 3c 1c 8d f8 3d 4f 17 4d 3d 3e f1 a8 bd
       0.027167456 0.121362895 0.050071057 -0.08249138
000200 5d 66 06 bd 61 9c e2 3d 2c 38 2a bd d2 67 bb 3d
       -0.032812465 0.11064983 -0.041557476 0.091506615
000210 50 c3 e1 bd 9b 33 0f 3d 43 2a 0a be 71 b9 9c 3d
       -0.11023581 0.034961324 -0.13492684 0.07652558
000220 0e 92 40 3d 38 1b 5d bd b8 d3 9b bd 74 e4 95 3d
       0.04701429 -0.053981036 -0.076087415 0.073189646
000230 5b b9 9f 3d 1b 28 12 bd 58 b8 7f 3d 47 fd a1 3d
       0.077990256 -0.03568278 0.062431663 0.07909637
000240 63 8f f7 3c a1 b2 cc 3d 81 b9 0e 3c 54 5d c3 bd
       0.03021974 0.09995008 0.00871122 -0.09539285
000250 6c e6 f3 bc 67 be 80 bd 14 ce c9 3c fe 8a 04 3d
       -0.02977296 -0.06286316 0.024634399 0.032359116
000260 dd 9a c2 3d b4 ce d0 3d b4 49 76 bd 19 45 e1 3d
       0.09502194 0.101956755 -0.060128883 0.109995075
000270 af fc b6 bd e9 60 9d bc 04 b5 ac 3c ee a3 1a bd
       -0.08934914 -0.01921125 0.021082409 -0.03775399
000280 d6 ab bb 3d 5d 5e 0b bd 36 a9 93 3d 60 3f cc bd
       0.091636345 -0.03402554 0.07210009 -0.09973025
000290 0f 0d 22 bd 3b 5c 95 3d 1a d1 c6 bd 11 70 01 bd
       -0.039563235 0.07292982 -0.09707852 -0.031601015
0002a0 b6 df ba 3c fd da 80 3d 72 64 a8 bd 03 08 ca 3d
       0.022811752 0.06291769 -0.082222834 0.09864809
0002b0 8d 58 60 bc 1f 00 07 3e 3a 6e 92 3d 7e e8 ac 3d
       -0.013692987 0.1318364 0.0714993 0.08442782
0002c0 85 22 ca 3d 29 89 ce 3d 55 91 04 3e da 47 f2 3c
       0.09869865 0.10084755 0.12946065 0.029575277
0002d0 8b 5b d9 3d 10 ba 02 bb 89 4b 1f 3d 8a a4 a9 bd
       0.106131636 -0.0019947328 0.038890395 -0.082833365
0002e0 bd 8b cb bc 93 e0 95 3d c5 48 ab 3d 30 40 00 be
       -0.024846906 0.07318225 0.08363489 -0.12524486
0002f0 37 b4 9c 3b 03 a1 19 3d b8 1f 50 3d f8 d2 4f bd
       0.0047822255 0.03750707 0.0508115 -0.050738305
000300 3e f3 01 be 7e 0e ad bd a6 fb 03 bd f6 22 57 bd
       -0.12690446 -0.0845003 -0.032222413 -0.052523576
000310 15 8c 81 3c 56 d4 42 3c 7c 86 8b bd 51 8c ab 3d
       0.015813867 0.011891445 -0.0681276 0.083763726
000320 52 67 61 3d ce b1 b1 bd af ac 08 bd 92 4b a0 bd
       0.055030175 -0.08676492 -0.03336781 -0.07826914
000330 09 9d 84 3d e4 61 22 3d c5 da e3 3c a3 a6 24 3d
       0.064752646 0.039644137 0.027814278 0.04019798
000340 44 58 0e 3d b0 58 fe 3c 62 b8 84 bd d1 fb 9e 3b
       0.034752145 0.031048149 -0.06480481 0.004851796
000350 d6 34 e7 bc 95 f8 46 3d d2 bb 45 3b 56 da 4f bd
       -0.028223436 0.04857691 0.0030171764 -0.05074533
000360 c8 3c 14 be f1 37 6d bd 46 d8 c6 bd d2 c4 c5 bc
       -0.14476311 -0.057914678 -0.0970922 -0.024141703
000370 f6 3f e3 3d 31 a6 ad bd 0b 99 a7 bd b9 e4 1e 3b
       0.11096184 -0.08478964 -0.081834875 0.0024245216
000380 aa e9 a3 3d e0 fa 0c bd 06 29 35 3d 9a e6 ce bd
       0.08003552 -0.03441894 0.044228576 -0.101025775
000390 0e 43 b0 3d b7 ad d0 3d 4e 5f 72 bd c7 85 ff ba
       0.0860654 0.101893835 -0.05917292 -0.0019494825
0003a0 e1 ef ee bc 41 ef f4 bc 17 f2 d1 bc 69 04 03 3e
       -0.029167118 -0.029899241 -0.025628133 0.12794651
0003b0 0c f2 87 bc eb 5a 02 3d fb bc 97 bd 0b e5 06 3d
       -0.01659491 0.031824987 -0.07409092 0.032933276
0003c0 f7 04 45 bd 8c c7 a5 bd 56 ad 0a 3d 46 90 3e 3d
       -0.048100438 -0.08094701 0.033856712 0.04652431
0003d0 4b 53 b4 bd f2 63 69 bd 0a a2 4f 3d 20 d4 58 bd
       -0.088049494 -0.05698008 0.050691642 -0.052936673
0003e0 10 33 3d 3d 91 c2 c7 bd 96 75 78 bb 5d b3 33 bd
       0.046191275 -0.097539075 -0.0037911884 -0.043872226
0003f0 0b ab e8 3d 20 0c 72 bd ac 2f 10 bd 9f fb 55 bc
       0.11360749 -0.059093595 -0.035201713 -0.013060479

fc2.bias f4 [64]
000000 fc f3 db 3d ee bf 03 be 9e b1 00 3e e6 b5 e8 3d
       0.10739896 -0.12866184 0.12567756 0.113628194
000010 81 d0 21 3e 57 91 a9 3d 43 44 55 3d a0 34 b8 3d
       0.15802194 0.082796745 0.052067053 0.089944124
000020 82 da 7e bc 07 aa d4 3d 8c 11 99 bd f0 37 f8 3d
       -0.015555026 0.10383993 -0.0747405 0.12120044
000030 02 34 2e 3d 05 33 bf bd 18 12 4f 3d 82 5a 02 be
       0.042530067 -0.09335903 0.050554365 -0.12729838
000040 a9 92 4c 3d 75 d8 c4 bd d9 c3 28 3d 2c 0d 35 bd
       0.049944554 -0.096115984 0.0412024 -0.044202015
000050 86 20 02 3e 4a 04 bc 3d b2 ea d9 3d 11 4d d3 3d
       0.12707719 0.091805056 0.10640468 0.103174336
000060 fe 7b 71 bd da 98 81 3c 4f b8 b6 bd 5e c1 02 3e
       -0.05895614 0.015819956 -0.08921873 0.12769076
000070 9f ed 3e 3d a0 63 12 3d 8f 66 14 3e 1f 8d 65 3d
       0.046613332 0.03573954 0.14492248 0.056042787
000080 9d 57 4d 3c 3d 63 87 3d 01 f9 8b bd a5 02 b8 bd
       0.012533096 0.06610725 -0.06834603 -0.089848794
000090 2f 8d 20 3c f4 12 a5 3d 15 89 02 3d d9 4a 47 3c
       0.009799286 0.08060256 0.031869013 0.012163841
0000a0 b0 23 a3 3c ae b8 a0 bd f7 20 0b bd 43 00 cc bd
       0.019914478 -0.07847725 -0.033966985 -0.099609874
0000b0 0f a0 39 bc 8a 8d 0a be eb d9 db 3d 70 23 85 3d
       -0.011329665 -0.13530555 0.10734924 0.065009
0000c0 96 fd 3a bd c6 07 81 bd d8 b2 a6 3d 04 e2 80 3d
       -0.045651995 -0.06300311 0.081395805 0.06293109
0000d0 69 7e 1c bd ec db a8 3d c4 e2 39 3d 2f 31 44 3d
       -0.03820649 0.08245072 0.045382276 0.047898468
0000e0 af e8 02 be 6f 5e 27 bb 98 06 b3 bd c9 13 8e bb
       -0.12784074 -0.0025538465 -0.08741492 -0.0043358547
0000f0 42 f1 ed bc 0c 88 a3 bd d0 aa a1 3d 63 3c 94 bd
       -0.029045705 -0.07984933 0.07893908 -0.0723808

fc3.weight f4 [1, 64]
000000 8b 33 1d 3c 96 a1 1d bc 22 36 1c 3b 40 bd 9f 3c
       0.009594808 -0.009621045 0.0023835977 0.019499421
000010 a0 bc 60 3d de be 17 bb 10 2b 9b bc 7c b9 6e bc
       0.054867387 -0.0023154537 -0.018941432 -0.01457059
000020 3f 6a 04 3b 60 3e 36 3d 84 f9 15 bd b4 cb 12 3d
       0.002020493 0.04449308 -0.03661491 0.035838798
000030 d0 72 c7 bc 04 53 69 3c f0 7e 91 bc 87 f4 71 bc
       -0.024346739 0.014240984 -0.017760724 -0.0147677725
000040 b8 24 2c bc b8 65 2f 3c a4 ae 0f 3c 2c f3 c0 bc
       -0.010506801 0.010705404 0.008769665 -0.023553453
000050 d2 c8 d3 3b fa bb 80 3c dc c9 65 bc 67 b1 3c 3c
       0.0064631486 0.015714634 -0.014025178 0.011516905
000060 1b b9 3a 3c 7d f1 82 bb 9e cb 3c bd 1d db a6 3c
       0.011396672 -0.003996073 -0.046092622 0.020368153
000070 32 85 03 bd 72 4e dd 3c de 66 c1 3c 33 0c 2b bd
       -0.032109447 0.027014945 0.023608621 -0.04175968
000080 b5 4e ac bb 6e 6b 88 bc 89 2d e8 bb 03 9f 01 bc
       -0.005258406 -0.016652789 -0.0070855063 -0.0079114465
000090 0f 09 81 3b ab 3d b4 3c 00 d9 37 3c 68 3e 86 3a
       0.0039378474 0.022002062 0.01122117 0.0010241987
0000a0 f0 95 fd bc 8a f6 45 bd d7 67 84 3b 74 f4 43 bb
       -0.030955285 -0.04833082 0.004040699 -0.0029900344
0000b0 2d f1 20 ba 4a 25 09 bb ee de f9 3c 37 d9 95 3c
       -0.00061394536 -0.0020926767 0.030501809 0.018292053
0000c0 88 e5 ba 3c c1 90 96 3b 7a 56 86 bd 38 cf 02 bd
       0.022814527 0.0045948927 -0.06559463 -0.0319359
0000d0 f2 89 13 bc 46 0d 52 bd 0c 13 56 bd 89 81 b1 3a
       -0.009005057 -0.05128219 -0.05226426 0.0013542633
0000e0 ff 1c f7 3c 57 e2 03 3b 3a 7b ad 3b 8c 60 d7 3b
       0.030165194 0.0020123923 0.0052942308 0.0065727886
0000f0 d6 cf 72 3b ed 9f 6b 3c bc ec 2c 3b 7f ac 91 3c
       0.003705015 0.014381391 0.0026386222 0.017782448
