Final_Submission/trading-GYM/PPO-BEST-WEIGHTS/ppo_value_model_weights.pth (torch, 22056 bytes, 5 tensors)

fc1.weight f4 [64, 8]
00000000: 6bed dfbd d389 3a3e 24fd 283e cb73 3abe
00000010: abbc 4dbe 8219 11be 5094 b2be ba15 1a3e
00000020: 90cc fbbd 2083 5c3e 28ca dbbc ebb9 8c3d
00000030: b732 1e3d 2573 9d3d 1a8b 01be 1d54 aa3e
00000040: 3db3 4dbe eeec 01bd 7fd9 c2bd ce0e aa3c
00000050: 881b c9bd 68f4 533d 826d 8abe 1f09 ba3d
00000060: 607a 2fbd ce7a 203e 8c83 dcbd fccd 723d
00000070: 112b 93bd 2e6f 3cbe 6ea4 20bd 8670 603e
00000080: ed13 2c3e 0c47 173e 3836 81be 5d8e 22be
00000090: eebb c1bd 428e 7ebe 1864 5a3e 1328 07bd
000000a0: 0b0a 41be 207f 8b3d 1213 75be 8a5d 6c3e
000000b0: ab75 df3d 2e64 87bd eed8 da3e b66f 003e
000000c0: efe2 aebb 6fc8 93be e3cc 003e fce2 86be
000000d0: 94e5 bfbd ad4f 8fbe 5016 b5be a9fc 203e
000000e0: 85d1 71be ff9e b0bd d964 d53d ef7b 4b3e
000000f0: 83ac f23d 4e77 ab3c 85a7 e6bd ff9e 56be
00000100: 59d1 5a3e f9b1 453e 419e 2dbe 719b 463e
00000110: 0e9c e9bc d76f fa3d d3b9 d2be 340b 393c
00000120: 5409 4fbe 8cf5 2c3e a450 16be 029e 6a3d
00000130: ee31 71be f5c8 d5bd e176 163c 623d cfbd
00000140: 361c 95be 7831 a13e 4f69 a83e d068 b9be
00000150: 9ebe c13c a307 8e3e e865 7cbe a591 9a3e
00000160: fb82 8bbe 7457 c63d 87b1 a1bd ae80 88bd
00000170: ae30 323e c8c2 12bd acb8 7f3d 4e0c acbd
00000180: 5f8c 6e3e 1a59 97be 2f82 26be c939 b9bd
00000190: 2415 3cbe 0fc0 2dbe 81a2 96be 2a07 483e
000001a0: 7a50 afbd 13f9 d63d 2948 8a3e 313f c5bd
000001b0: 4803 83be 9b28 513e e8ef 16bd fcb8 2dbc
000001c0: b5e1 5a3d 3ddd 37be d85d f93d aa59 163e
000001d0: a250 69bc bf6c 00be e52b 85bd 2192 a2be
000001e0: af33 bb3d dfd6 74bd 3979 e43c 2e9c 6cbd
000001f0: 7ba3 6d3b 339b b63d 4735 8e3d 2cab 18be
00000200: bd29 e6bc fed1 8cbe 42c8 173e 92b6 01bd
00000210: 83cf 0cbb 3941 20be f75c ebbb 504d 683e
00000220: 61c6 f9bd 323b 66be d3c7 40be 68ec a6be
00000230: 278e 06be b691 433e c584 a53d 2320 4f3e
00000240: d5eb f23d f830 9cbd 4d47 8ebd 56ab 353e
00000250: c5f9 8bbe af2a 2c3e 2634 a43d 3298 2a3e
00000260: 143c 75be a16a 9dbc 6cd4 2bbe 7746 debd
00000270: 77ab 0cbd 277c 2dbe a072 c33d 4819 723c
00000280: 0766 853e ae2a 06be e331 1cbe 7c1c a63c
00000290: f186 2bba be19 833e 2d7c eebd a1c5 03be
000002a0: c7d4 123c 8b8c 203d 2305 8e3e f896 2dbe
000002b0: 4888 85be 6bd5 c2bd 7f03 7d3e f869 f8bd
000002c0: b954 4e3d ad73 75be f979 1cbe b13e 0b3e
000002d0: e4ca 2b3e a4d8 95be e55e f83e c9fe ad3e
000002e0: 9c69 d63d f3b2 f7bc e8b9 003d 6602 afbd
000002f0: d276 6abe 31a2 8e3d 4d22 ca3e 91d5 843d
00000300: 2ed2 61be 61eb 903c a2bc 5c3d a4aa 67bd
00000310: fff7 303e b51d d2bc 1bee 023d be0e b2bd
00000320: de68 4bbd 1a01 973d 05bf 8dbe 3d50 01bd
00000330: e92b 963d 3ebe 6cbe fa54 fabe c7bc f6be
00000340: 99b1 a53d dac5 63be 74bc 4fbe e138 7e3e
00000350: 2b47 193e b264 0fbe 5211 a73d cf52 17be
00000360: 4af5 223d 0099 883e 0d1c c7bd 25fa 123c
00000370: e3f0 9fba d082 b23e a4f0 213e 242a df3d
00000380: d1f0 94be 29aa 383e 0e56 9fbe 67dc 0d3e
00000390: 6eaa 553e 8ee4 3f3e d2ec 003d 4c39 92bd
000003a0: 32ca 4dbd e448 13bc 5e98 a1bd 811f 74bc
000003b0: cb48 ddbc c7f5 233e 3804 cd3d 459a 3e3d
000003c0: a2b1 083e dd52 3abe bd15 34bd 00f7 7c3e
000003d0: 765d b63d c169 2bbe 4af8 3e3d 2f8d fcbc
000003e0: 95cb 413d 089a 15bc 6e80 0ebe 6a8a 0f3e
000003f0: a727 0fbd 4dfc 2e3d 90f6 0fbe dfa0 c73d
-0.10933956 0.18216638 0.16502815 -0.18208234 -0.20091502 -0.14169887 -0.34878778 0.1504735
-0.122948766 0.21534395 -0.026829794 0.068713985 0.038622584 0.07687978 -0.1265072 0.33267298
-0.20087905 -0.031720094 -0.0951414 0.020759013 -0.09819704 0.051746756 -0.27036673 0.09083771
-0.042841315 0.15671846 -0.10767278 0.059278473 -0.07185949 -0.18401787 -0.039219312 0.21917924
0.16804476 0.14773196 -0.25236678 -0.1587462 -0.09459673 -0.24858955 0.21327245 -0.032997202
-0.18851487 0.068113565 -0.23933056 0.23082557 0.10911115 -0.06610905 0.4274363 0.12542614
-0.005337111 -0.28863856 0.12578158 -0.2634505 -0.093699604 -0.27990475 -0.35368586 0.15721382
-0.23615082 -0.08624076 0.10419626 0.19871496 0.1184931 0.020930912 -0.112624206 -0.2095909
0.21368922 0.19306172 -0.169549 0.19395234 -0.028516795 0.12228363 -0.41157398 0.011294175
-0.20218402 0.16890544 -0.146792 0.057279594 -0.23554203 -0.1043872 0.009183616 -0.1011913
-0.29123086 0.31483054 0.32892844 -0.36212778 0.023650464 0.277402 -0.24648249 0.30189243
-0.27248368 0.09684649 -0.07895189 -0.06665169 0.17401382 -0.03583029 0.062431976 -0.084007844
0.23295735 -0.29560167 -0.16260599 -0.09044225 -0.1836744 -0.16967796 -0.29420856 0.19533983
-0.085602716 0.10496726 0.2700818 -0.096311934 -0.2558844 0.20425646 -0.036849886 -0.010603186
0.053437907 -0.1795549 0.121761024 0.14682642 -0.014240416 -0.12541483 -0.06502513 -0.31752113
0.09140717 -0.05977523 0.027889835 -0.057766132 0.0036260772 0.08916321 0.069437556 -0.14909047
-0.028096074 -0.2750396 0.14822486 -0.031668253 -0.0021485991 -0.1564988 -0.007182713 0.22685742
-0.12196041 -0.22483519 -0.18826227 -0.3260224 -0.13140164 0.19098553 0.080819644 0.20227103
0.11861388 -0.076265275 -0.06947193 0.1774114 -0.27338997 0.16813157 0.08017759 0.1665962
-0.23948699 -0.019215884 -0.16780251 -0.10853284 -0.03434321 -0.16941892 0.09543347 0.014776535
0.26054403 -0.13102219 -0.15253405 0.020277254 -0.000654324 0.25605577 -0.116447784 -0.12868358
0.008961863 0.039196532 0.27738294 -0.16952121 -0.26080537 -0.095133625 0.24708365 -0.12129587
0.050373767 -0.23969908 -0.15280904 0.13598134 0.16776615 -0.29266846 0.485099 0.33983448
0.10469362 -0.030236697 0.031427294 -0.08545379 -0.22896889 0.06964529 0.39479294 0.06486047
-0.22052833 0.017690362 0.05389083 -0.05655922 0.17282103 -0.025648931 0.031965356 -0.08694218
-0.049660556 0.07373257 -0.276848 -0.03157066 0.07332594 -0.23119447 -0.48892957 -0.481909
0.08090515 -0.22243443 -0.20286733 0.24826385 0.14968555 -0.14003256 0.081576005 -0.14777683
0.039784707 0.2667923 -0.09722147 0.008970772 -0.0012202527 0.34865427 0.15814453 0.108967096
-0.29089978 0.18033661 -0.31120342 0.13853608 0.20865795 0.1873953 0.03147585 -0.07139835
-0.050241657 -0.008989546 -0.0789039 -0.014900089 -0.02701225 0.16011725 0.1001057 0.04653384
0.13349012 -0.18195672 -0.043966044 0.24703598 0.08904545 -0.1673956 0.046623506 -0.03082904
0.04731329 -0.009130962 -0.1391618 0.14017645 -0.034949925 0.04272108 -0.140589 0.097474806

fc1.bias f4 [64]
00000000: 411d afbd d051 e93d 58dd 4dbd 7c44 a43e
00000010: 3423 323e 76c4 5bbd 15ea 22be 25b6 80be
00000020: 34b5 943c 1abf e23d 2934 a63c 1cb2 b4be
00000030: 3875 4b3d 3be2 843e 7826 b3be 661a 9a3e
00000040: 7670 333d 752e d4bd fb5c c0be 9708 3ebe
00000050: 8039 5dbe 5d2b 8b3e 4c75 5c3d b51f 733c
00000060: 497e 4cbe 3429 703e 7740 02be 57d4 85bd
00000070: 20ce 6a3e c365 303e b4e4 8b3e 3496 dcbd
00000080: 8e2c 8e3e 70a8 26bd ce97 efbc 79bb c53d
00000090: 05cf a23e 15c8 52bc f813 fbbe d89d 143e
000000a0: ba02 82be 575e 47be d0a4 703e ac45 16be
000000b0: a477 893d 5ab5 acbd c07e 32be bfb6 e1be
000000c0: 43d0 a9bd 7e64 48be dc86 5cbd 8671 a7be
000000d0: caa0 96bd b27e 0b3e 53e5 29bd c838 b3be
000000e0: 5128 3f3e 2539 34bd 027c a93d 15f4 aa3e
000000f0: 29fa 453d c2b7 1b3d aae3 773d 6eff 303e
-0.085505016 0.113925576 -0.050259918 0.320835 0.17396241 -0.053654157 -0.15909608 -0.25138965
0.01815281 0.11071606 0.020288544 -0.35292137 0.049672335 0.2595385 -0.34990287 0.30098265
0.043808423 -0.103604235 -0.37570938 -0.18557964 -0.21603966 0.2718152 0.0538228 0.0148391025
-0.19970049 0.23453218 -0.12719904 -0.06534641 0.22930193 0.17226319 0.27322924 -0.107708365
0.27768368 -0.04068798 -0.02924719 0.09654898 0.31798568 -0.012865086 -0.49038672 0.14513338
-0.25392705 -0.19469582 0.23500371 -0.14675015 0.06712273 -0.084330276 -0.17431164 -0.44084737
-0.08291676 -0.19569585 -0.05383955 -0.327038 -0.07354887 0.13622549 -0.041478466 -0.35004258
0.18667723 -0.04399981 0.08275606 0.33389345 0.048334274 0.038017042 0.06051985 0.17284939

fc2.weight f4 [64, 64]
00000000: aae4 d8bd 9757 81bd 4784 c6bd 55ba 2fbf
00000010: f08c e8bd e9f1 bc3d 1429 98bd cc9c d03c
00000020: 5399 3e3d 34c2 2fbe 8cf9 a2bd 2a41 dabd
00000030: ded8 9ebd 5e09 2fbe 3825 0bbe 81fa a0bc
00000040: 33c3 943d 42be 113e 5547 08be a48a f0bd
00000050: a38f aebc e8a7 c8bd 12cf a13d be45 ccbd
00000060: d578 12bd ba56 37bd 1781 b53d f3b7 02be
00000070: 5c4b 00bd 9a7d 29bd aeb7 8b3d e276 393d
00000080: c314 40bd e92c b13d b3da 233d 2b7e a0bc
00000090: 70f7 d03c b86c 843e 61dc 11be f897 62bd
000000a0: d95b 13bd 4922 cfbd 00a8 3fbe 28fd c93b
000000b0: 31bb b13d c7a0 c3bd 162d cdbc 137e e03c
000000c0: bd5b c63b 84f9 0cbe 50ec b6bd 1156 44bc
000000d0: 3633 ac3c e519 49be 86d2 243d 5276 92ba
000000e0: b69f 123d 583f ad3b c023 333c 6e47 453d
000000f0: 1cf0 c7be 8a7a eb3d 331f 76bd 6b6b 103e
00000100: 0abc e13d 792d dcbd b3b5 733d 4c80 e13d
00000110: d3e5 a9bd 4500 4b3d ea6d 3abd 2dc5 bcbc
00000120: afb1 9cbc 65e2 96bd 17f4 0bbc d970 9cbd
00000130: ee56 14be b11d 883c 7f24 f03c 588b 5d3d
00000140: a1a8 bbbd 649a 8dbd a7c5 e13d 9b48 98bc
00000150: c6e1 87bd 7d55 a1bd 6357 813d 6e09 9d3d
00000160: e864 8bbd dc43 d13d e3f1 aa3c 0d00 8d3d
00000170: 7d92 ad3d 2aa0 edbd fb70 e53c cb36 fabc
00000180: 35c4 583d f738 2d3e 8939 cbbd ec19 8ebd
00000190: 7859 2dbd fede be3d 9b18 d83d 0e63 733d
000001a0: 78ca c6bb a81d b53d 166c 4e3c 44a3 6cbd
000001b0: eca9 cebc 1643 913d 127c 75bd 86f1 f6bd
000001c0: bf0b 35bc ab94 a1bd f6eb 4e3d 7c91 a0bd
000001d0: 3980 2c3d d27e 143d 0233 593d 7c24 07be
000001e0: fe95 de3d d0cf 41bd 860e 05be 77ee 87bd
000001f0: 90c0 bebd 0a9d a0bd 54fa 693d a494 95bd
00000200: 0e1e 9cbd f26a 0cbd 1726 c4bd 6c87 b63d
00000210: 476a a4bb a3b0 bbbd 477e c4bc 1661 34bd
00000220: ee23 df3d af1b 3bbd 0538 ce3c 0e8c 373d
00000230: c656 093e b7cb 1f3d 73f7 983b 896f e03d
00000240: c438 bc3d 6d08 133e 6dd9 ac3c a190 4c3d
00000250: 6b76 35bd 5915 69bd 10e3 bcbd 3173 2f3d
00000260: d841 d23c 6378 dbbd e936 0abd 5898 d9bd
00000270: 56bc 623d 82b9 0a3e fded 443d 736f 2c3c
00000280: da2d 7dbd 8561 093e dfd1 92b9 8518 9cbd
00000290: be62 bc3d 0876 fbbc 190d 38bd a0ff e4bc
000002a0: 4b32 e23d 013e 4a3d 25da ecbc b800 a0bd
000002b0: 8e93 993d 6fc6 a13d 3188 4cbd eed5 4cbd
000002c0: 0fa5 a53d a76e acbd 495e 99bd 466d 613d
000002d0: 3181 6b3d a770 cb3b cfd5 6bbd 97b9 e6bd
000002e0: 10bc 693d 5dc7 e2bd 683b 783d 56a5 303d
000002f0: f13a 4d3d 5834 3fbd a96f 983d 5cef c83d
00000300: 2188 83bd 7b21 54bd 5b73 47bd 217c 913d
00000310: df8b b3bd 354b 69bd 6cb5 063d e7cb 0e3d
00000320: 5a95 3ebc 0465 963c beb9 97bd 0e5f 1a3d
00000330: 2a5e 483c aafb f03d 23a2 b3bd c7d2 dabe
00000340: 7f72 97bd b861 9bbd de80 0a3d a3d9 113d
00000350: c6ab 5f3d c414 973d 212c fcbd c5d7 0c3b
00000360: b241 eb3c e8e0 833d 9676 0abb 5324 b5bd
00000370: a520 793d 4413 7a3d f2b5 d53d 5715 9dbd
00000380: 8bee 3ebd dfa6 b3bd 94de 99bd a5b2 8f3d
00000390: f2b8 2cbc 5ac0 06be a8ff 43bd 87b2 b03c
000003a0: 7710 aebd f399 38bd 9a55 bf3d 73e0 b4bd
000003b0: 89ec 06be 1f08 09bd a360 b63b 6d97 053d
000003c0: 09be 313c 9561 953d a770 e2bd dbe8 c0bd
000003d0: c17f 9a3c 0907 91bd 782d 4d3d e19f 97bc
000003e0: 6f3f d03c 3637 5d3d 52ba 47be ff97 19bd
000003f0: 6e94 5dbd 1b02 3bbd ffcb e73d 9792 4f3d
-0.10590489 -0.063155346 -0.09693199 -0.68643695 -0.11355007 0.09225828 -0.0742971 0.025465392
0.04653294 -0.17163926 -0.079577535 -0.1065696 -0.07756208 -0.17093417 -0.13588417 -0.0196507
0.07263794 0.14232734 -0.13308461 -0.117451936 -0.021308726 -0.097976506 0.07900824 -0.0997424
-0.035759766 -0.044760443 0.088625126 -0.12765484 -0.03132187 -0.04137955 0.068221435 0.04527939
-0.0468948 0.08651144 0.04000349 -0.019591412 0.025508612 0.25864196 -0.14244224 -0.05532071
-0.035976265 -0.10113961 -0.1871643 0.006164212 0.08678282 -0.0955215 -0.025045913 0.027403867
0.0060534165 -0.13767058 -0.08931792 -0.01198341 0.021020513 -0.19638784 0.040239833 -0.0011174178
0.035796843 0.005287092 0.010933816 0.048163824 -0.39050376 0.11497982 -0.060088348 0.14103477
0.11022194 -0.10750861 0.059499454 0.11010799 -0.082957886 0.049560804 -0.04551498 -0.02304324
-0.019127695 -0.073674 -0.008542082 -0.076387115 -0.14486286 0.01661572 0.029314278 0.054087967
-0.09163023 -0.06914213 0.11024027 -0.018589308 -0.0663486 -0.07877634 0.06315496 0.07667814
-0.06806356 0.10218021 0.020867294 0.06884775 0.08475206 -0.116028145 0.028007975 -0.030543705
0.052921493 0.16916262 -0.09923083 -0.06938538 -0.042321652 0.09319876 0.10551568 0.059420638
-0.0060666166 0.08843547 0.012599012 -0.05777289 -0.02522751 0.07092874 -0.059932776 -0.12057786
-0.011050164 -0.07889684 0.050518 -0.07840249 0.04211447 0.036253758 0.05302716 -0.13197511
0.108684525 -0.047317326 -0.12993822 -0.066372804 -0.09314072 -0.07842453 0.057123497 -0.073037416
-0.0762292 -0.03428168 -0.095775776 0.089125484 -0.005017552 -0.0916455 -0.023985995 -0.0440379
0.10895525 -0.045680698 0.025173197 0.0448113 0.13412008 0.039012637 0.00466817 0.10958774
0.09190515 0.14358683 0.02109977 0.049942616 -0.044302385 -0.056905124 -0.09222996 0.042834464
0.025666162 -0.10716321 -0.033743773 -0.106247604 0.055355392 0.13547328 0.048078526 0.010524618
-0.061811306 0.13416107 -0.00028003656 -0.07621864 0.09198521 -0.03069593 -0.044934366 -0.027953923
0.11044749 0.049375538 -0.028912613 -0.07812637 0.07498847 0.07899176 -0.04993457 -0.050008707
0.08088123 -0.08419543 -0.074886866 0.055035852 0.057496253 0.0062084976 -0.05757695 -0.11265867
0.057064116 -0.11073182 0.06060353 0.043126427 0.05010504 -0.04668078 0.074431725 0.09811279
-0.06422449 -0.051789742 -0.048693996 0.07103754 -0.08766913 -0.05695649 0.03288786 0.034862425
-0.011632288 0.018358715 -0.074084744 0.037688307 0.012229482 0.11766751 -0.087711595 -0.42738935
-0.07394885 -0.07586998 0.033814304 0.035607945 0.054607175 0.073770076 -0.123131044 0.0021490913
0.02871785 0.06439382 -0.0021127812 -0.08844819 0.060822148 0.06105353 0.10435094 -0.07670086
-0.04661421 -0.087720625 -0.075131565 0.070164956 -0.010542141 -0.13159314 -0.047851235 0.021569503
-0.08499234 -0.045068692 0.09342499 -0.08831873 -0.13176169 -0.03345501 0.005565719 0.032615114
0.010848531 0.07294003 -0.11056643 -0.09419414 0.018859746 -0.0708142 0.05009219 -0.018508853
0.025420872 0.05400773 -0.1950467 -0.03749847 -0.05409663 -0.045656305 0.11318206 0.05067691

fc2.bias f4 [64]
00000000: bed8 c43a 5594 ddbc 6f62 463d 365d f93d
00000010: a917 a8bd 254d 3f3d 521e 483d 21aa c4bc
00000020: 833f b1bd 23b7 ac3c 3c69 37bd a3dc 0e3d
00000030: f9aa c8bc 56e4 f8bc 0a4e 123d 61b5 90bd
00000040: d5af 37bd c090 363d aa51 973c 0ddf 19be
00000050: 41a6 713d 6036 3c3c 274d 7abe 031e 2cbe
00000060: 185f 8d3e 33a1 593e e728 f8bb 5038 bfbd
00000070: b4d9 493d e16c a8bd 5a86 9abe 3c89 bd3d
00000080: d8e5 3d3d 5795 5b3d 5a06 8e3d 2dba 133e
00000090: 7a2c 32bd f5e3 36be 3156 9cbd 4d96 6ebe
000000a0: 08d3 76be b2ff e03d 2005 cbbc 8c3f 41bd
000000b0: c87c 7cbd d103 5c3d fa2e 593d bc34 153d
000000c0: d9cf 20be 4e8b 32bc cccf c4bd f2a4 363d
000000d0: 7efe cc3d effe dcbd a6f7 933d 44b7 653d
000000e0: 0f3b 85bd e736 9cbd e6f4 b03d be7b 273c
000000f0: 4d62 0f3d f407 cabc c586 b9bc 2e0a aabd
0.0015018207 -0.02704827 0.048433717 0.12175982 -0.08207638 0.04670443 0.04885704 -0.024006905
-0.08654692 0.02108342 -0.044778094 0.034878384 -0.024495589 -0.030382317 0.035718955 -0.07065845
-0.04484542 0.044571638 0.018471558 -0.15026493 0.058996443 0.011487573 -0.24443494 -0.16808324
0.27611613 0.21252899 -0.0075732353 -0.09336913 0.049279884 -0.08223892 -0.30180627 0.09254691
0.046361774 0.05360922 0.06934805 0.14426489 -0.043499447 -0.17860396 -0.07633627 -0.23299523
-0.2410394 0.1098627 -0.024782717 -0.047179744 -0.06164244 0.053714577 0.053023316 0.036427245
-0.15704288 -0.010897471 -0.096099466 0.044590898 0.10009478 -0.10790812 0.072249696 0.05608298
-0.06505405 -0.07627659 0.08640461 0.0102223735 0.035005856 -0.024661995 -0.022647271 -0.08302723

fc3.weight f4 [1, 64]
00000000: c568 d2ba 6add 1dba ad2f 3a3b 38e1 31b9
00000010: 639b e73a 2fd6 43bc 9ccb 083d 9398 45bb
00000020: f270 8d3d 05cd fd3a 3caa e7ba 5803 4bbb
00000030: 83b4 14bb 0813 9ab9 6a9d 7bb9 a609 10b9
00000040: 4d95 b93a f5c4 1e3b c09f 083b ad60 25bb
00000050: 16ef f3ba dd0b 8dba 6f61 603b e3a7 fc3a
00000060: fc8d 3d3b 35c8 143b dd75 893b 9c80 36bd
00000070: 46dc 0b3b 9357 c7ba f0e0 f0ba 96c5 97ba
00000080: 355b 113c c9cd 77bb 0d12 04bc e0c6 67ba
00000090: ada9 c33a 20d1 2bbb 7632 09bc 8edb abbb
000000a0: 9d2f 983b b4b2 a2bd 8e70 dabb 7c42 ecbd
000000b0: 3e47 42bb 132b 4c3c bd91 94bd 5bd9 3c3b
000000c0: e74a 183b bd5e 0fb9 5ecd 083b 8f7c cfbb
000000d0: e04e 953d b0b8 feba b909 383a e950 183b
000000e0: 0e2e e9ba 070a 22bb cd63 00bc 367b 253d
000000f0: 3105 963a d9cd c2ba dde3 963b 60a7 d73a
-0.0016052952 -0.0006022068 0.0028409765 -0.00016963936 0.001767021 -0.011952921 0.033397302 -0.0030150756
0.06906308 0.0019363469 -0.0017674635 -0.0030977335 -0.0022690601 -0.00029387348 -0.00023995867 -0.00013736504
0.0014158875 0.0024226282 0.0020847172 -0.0025234625 -0.0018610682 -0.0010760982 0.0034237762 0.0019276108
0.002892374 0.002270234 0.0041949586 -0.044556245 0.002134101 -0.0015208594 -0.0018377583 -0.0011579271
0.008871843 -0.0037811866 -0.008060944 -0.00088415854 0.0014927887 -0.0026217178 -0.008373847 -0.005244679
0.004644348 -0.07944241 -0.0066662496 -0.115361184 -0.0029644514 0.012461442 -0.0725436 0.0028816077
0.0023238005 -0.00013672835 0.0020874362 -0.006331987 0.07290435 -0.0019433703 0.0007020492 0.0023241586
-0.0017790215 -0.0024725215 -0.007836294 0.040400706 0.0011445639 -0.0014862373 0.0046048 0.001645308
