Final_Submission/trading-GYM/ddpg_actor_model_weights.pth (torch, 74034 bytes, 5 tensors)

fc1.weight f4 [128, 8]
000000 d7 0f f9 3d c3 e2 0f be de 7d 28 3c 7f 0c 11 be
       0.12161224 -0.14051346 0.010283915 -0.14164923
000010 86 03 85 3c c8 01 78 be c9 fa 60 3e c9 b1 7a 3e
       0.016237032 -0.2421943 0.21970667 0.24481882
000020 d0 29 2b be 4b b2 43 3e 50 a2 99 3e 05 1d 7b bd
       -0.16715169 0.19110982 0.30006647 -0.061306972
000030 bf b3 81 3e 4c f0 1a 3e f0 2f 05 3e 8d 04 21 3d
       0.25332448 0.15130728 0.13006568 0.03931098
000040 0f 7b 92 bc 4c 65 14 be f4 a1 2f be ad a4 7d 3e
       -0.017880945 -0.14491767 -0.17151624 0.2476985
000050 12 ec 86 be 38 58 a6 3d f3 2d 48 be c2 b9 72 be
       -0.26351982 0.08122295 -0.19548778 -0.23703673
000060 ba 10 b4 be f7 ad 1f be e4 2f 16 be a5 41 6b 3e
       -0.3516901 -0.15593706 -0.14666706 0.2297426
000070 4d 11 a2 be 01 90 3a be 01 7d a0 3e ba 19 7f 3c
       -0.31653824 -0.18218996 0.3134537 0.0155700985
000080 55 2d eb bd 48 b8 90 be 40 56 9b bd a9 ce eb 3d
       -0.11483256 -0.28265595 -0.0758481 0.11514027
000090 cf dc 09 3e 08 13 9e 3e 1b 48 d6 bd d9 0a 69 3e
       0.13463138 0.30873895 -0.10462972 0.22758044
0000a0 9b 0b 1e bd e1 f3 ad 3e 60 e0 11 be 93 00 ce 3b
       -0.038585287 0.33975127 -0.14245749 0.0062866895
0000b0 82 71 bd 3e a3 a3 0a 3e f8 56 e1 bd 94 33 2b be
       0.37000662 0.13538985 -0.11002916 -0.16718894
0000c0 78 15 55 be 96 8a 42 3e 9c 0e 51 3d eb 37 9a 3e
       -0.20808971 0.18998179 0.051039323 0.30120787
0000d0 3d 1e ea 3e 3a 31 b9 be 52 44 8a 3e 24 91 24 3e
       0.45726195 -0.3617037 0.2700525 0.16070992
0000e0 46 d2 bb bc 3e 87 7e bd 91 5f 3a be 61 6f 68 bd
       -0.022927415 -0.062140696 -0.18200518 -0.056746844
0000f0 b4 3c d1 3e ed 0a ae bb d1 60 ff 3d 5f 9e 43 be
       0.40866625 -0.005311361 0.12469638 -0.19103383
000100 2b db 84 be f5 40 e2 3e e7 47 dd 3d 6e 51 ce bd
       -0.25948462 0.44190183 0.1080473 -0.10074125
000110 95 06 a6 be 59 f1 a6 3e 99 b6 f5 bd 41 b5 39 be
       -0.32426897 0.3260601 -0.11997718 -0.18135549
000120 d4 3f 91 be 94 96 a7 3e 5b c3 8f 3e b8 54 18 bd
       -0.2836901 0.3273207 0.28078732 -0.03719017
000130 e1 b3 67 3e f4 6d a7 3c 32 a0 0f 3e 30 7e d2 bd
       0.22627212 0.020438172 0.14025953 -0.102779746
000140 1c ec 5c 3d 4e 1a 46 be 60 2d 9a be 43 4c 17 3e
       0.05393611 -0.19345972 -0.30112743 0.14775185
000150 c8 c4 29 be fa 85 87 3e 95 f2 79 3e 5b a5 94 3e
       -0.16578972 0.26469404 0.24408944 0.29032406
000160 ec 31 9b 3e d1 27 bc 3d 83 c5 c8 3e ec 17 17 bc
       0.30311525 0.09187282 0.3921319 -0.009222012
000170 0e 6c 08 be 10 87 e9 3d ab 00 c5 be 4a 05 4b 3e
       -0.1332247 0.11402714 -0.38477072 0.19826236
000180 8a bc 7a be 22 2e b6 3d ae 73 01 3d 41 f2 f3 bd
       -0.24485984 0.08895518 0.03160446 -0.11911441
000190 07 26 c6 be cf ff 18 be 9e 10 4b be 76 bd 39 3c
       -0.38700888 -0.14941333 -0.19830558 0.011336675
0001a0 90 8d 2a be 77 71 8e be 2c ac 50 3e a7 55 09 be
       -0.16655564 -0.27820942 0.20378178 -0.1341158
0001b0 8f 5e 5d be c1 07 3f 3e 6a 05 7f bd 84 3f 16 be
       -0.21618102 0.18655302 -0.062261023 -0.14672667
0001c0 28 13 12 be be a1 44 bd af 9f 82 be d4 98 57 3e
       -0.1426512 -0.048005812 -0.25512454 0.21054393
0001d0 6f 96 8f bd e1 81 a7 3d 98 15 22 be ca 3c 48 be
       -0.07011115 0.08179069 -0.1582855 -0.19554439
0001e0 d0 e6 98 3d 3c 88 e9 bd 7c f3 94 3d 1d 93 af bd
       0.07465899 -0.11402938 0.072730035 -0.085729815
0001f0 2b e1 83 3e 94 00 a7 3e 60 2b 6b be 17 66 9f be
       0.25757727 0.3261763 -0.22965765 -0.31132576
000200 c0 66 ca 3c 6b dc 4a 3e 50 03 6c be 44 3b a5 be
       0.024707198 0.19810645 -0.23048139 -0.3227178
000210 ce f0 75 3e f5 e9 54 3d a1 af 5f bc c2 db 26 be
       0.24017641 0.05198093 -0.013652713 -0.16294768
000220 32 fd 0c be 46 b2 78 bc 4c 80 1c 3e de 33 82 3e
       -0.13768461 -0.015179222 0.15283316 0.25430197
000230 56 b7 46 bd db f6 d5 3d 4e 0d 04 3d 52 ed b2 be
       -0.048514687 0.104474746 0.03223925 -0.34946686
000240 9b f2 c4 bd 0b 87 85 3c ae f0 c1 3d a3 00 c8 3e
       -0.09616586 0.016299745 0.09469734 0.39062986
000250 5f 85 c3 be 81 b0 7f be 06 b7 b2 3e b3 7c 57 be
       -0.38187692 -0.24969675 0.3490526 -0.21043663
000260 5a 45 32 be ca aa 7e 3e a5 af 61 be ac b3 ae bd
       -0.17409268 0.24869838 -0.2203966 -0.085303634
000270 53 03 c0 be 18 87 66 be e0 e1 d7 3e e3 07 8c 3e
       -0.37502536 -0.22512472 0.42164516 0.27349767
000280 94 b4 22 bd 6a 2d 89 3d e0 69 d2 3e 90 87 2b 3e
       -0.039722994 0.06698115 0.410964 0.16750932
000290 7c 63 93 3d 51 ef 3a 3d d3 1e ca be de a8 bb be
       0.071967095 0.045638386 -0.39476642 -0.36652273
0002a0 70 4d 97 be e2 a3 cb bd aa fb 49 3e 6c b3 94 3e
       -0.29551268 -0.099433675 0.19724908 0.29043138
0002b0 2a 27 00 be 35 0f bc bc 7e 00 b0 3e c3 6f cf 3e
       -0.1251494 -0.02295647 0.34375376 0.40514955
0002c0 b7 8d 1b bd e2 59 cf bd 7b 98 86 3e 1c c1 9f be
       -0.037976947 -0.10124566 0.26288208 -0.31202018
0002d0 67 42 87 3e a3 49 19 3e 70 6b ab bd ae 04 47 bb
       0.26417848 0.14969496 -0.083701015 -0.003036778
0002e0 12 fe 83 3e 84 c5 61 3d 55 3c 75 be 63 12 84 be
       0.25779778 0.055120006 -0.23948796 -0.25795278
0002f0 b9 13 e7 bb cc 28 1c be 9f e7 95 3e 77 82 c7 be
       -0.0070519117 -0.15249938 0.29278275 -0.38966724
000300 71 0e ae bc 8b 4f 88 3e 10 e6 55 be 79 9b f9 bc
       -0.02124712 0.26623186 -0.20888543 -0.030469643
000310 37 9d ce bd 7b 83 96 bd 5b 4a 1f bd 45 77 ad 3e
       -0.1008858 -0.07349297 -0.03888927 0.33880058
000320 6c 0d 5f be cb 96 d2 3d 97 c8 99 bc e5 ed 39 3d
       -0.21782464 0.10282668 -0.018772407 0.04539289
000330 b8 c9 11 3f 6c 65 21 3d e8 c7 e9 3d 37 9b 5f 3e
       0.56948423 0.039403364 0.11415082 0.21836554
000340 50 08 62 3e 4f 0e 48 bc f3 ee 45 3b 5a 70 48 3e
       0.22073483 -0.012210443 0.003020224 0.19574109
000350 8c 91 96 be 40 c9 65 3e b9 f8 77 3e bb 0c 96 3e
       -0.29407918 0.22440052 0.24215974 0.29306588
000360 08 9b 98 3e 83 8c 5e be 6f 00 4f be 45 f2 a5 3d
       0.2980578 -0.21733288 -0.20215009 0.0810285
000370 a4 79 ea 3d 8b 05 cc 3d e4 8e 5b 3e b1 5f 6e 3b
       0.11448982 0.09961995 0.21441227 0.0036372954
000380 be 73 bb 3d fc 8e 92 be d7 fb 9e bd 3a 8e b6 be
       0.091529354 -0.28624713 -0.077628784 -0.35655385
000390 17 2b 94 bd 4e d0 00 be c1 42 f1 3c ba ec f9 bd
       -0.07234781 -0.12579462 0.029450776 -0.12203355
0003a0 d5 58 ea 3d 98 48 66 be 4c fb d4 bd 59 48 a5 3e
       0.114427246 -0.2248863 -0.103994936 0.3228176
0003b0 36 cb be 3e c1 ab ac 3e ad 1e 72 be 5b df 9b bd
       0.37264413 0.33724788 -0.23644514 -0.07610961
0003c0 09 6e ac bd c2 88 0f 3e ea a4 4c 3d bf 3d 84 be
       -0.08419425 0.14017013 0.04996196 -0.2582836
0003d0 33 63 55 3e b6 df 85 3e 0a f3 cc 3c 58 3d 92 be
       0.20838623 0.2614724 0.025018234 -0.28562427
0003e0 dd 5c f7 bc 8b 5b 46 be 89 6b 62 3e 82 27 c1 3d
       -0.030195648 -0.19370858 0.22111334 0.09431364
0003f0 8a df 89 be 1a 1c 3c be d9 6e a9 be ff 6d 16 3d
       -0.2692836 -0.18370095 -0.33092383 0.036725994

fc1.bias f4 [128]
000000 8b cf c4 bd b4 be a5 be b1 ae 3e 3d dc 9e d3 3c
       -0.09609898 -0.32372057 0.046553317 0.025832586
000010 01 9c b8 ba b7 68 c4 3e 21 13 ae bd 9b e0 07 be
       -0.0014084579 0.3836114 -0.08499742 -0.13269274
000020 84 5c 66 be 22 ee 88 3e 89 78 7d 3e 8e b3 7a bd
       -0.2249623 0.2674418 0.24753012 -0.061206393
000030 15 d4 63 3d 2e 21 7c be a5 32 fa bd 5e 9e 83 be
       0.05562218 -0.24622032 -0.12216691 -0.25706762
000040 a9 68 d9 3d 01 93 ad be f7 09 19 bd 09 9c 35 be
       0.106156655 -0.33901218 -0.03736302 -0.17735304
000050 6d 7a 2a bd d7 af 01 3e db 42 41 3e 70 3f 51 bc
       -0.04162066 0.12664734 0.1887316 -0.012771472
000060 99 03 25 3e 0f 6c 48 be a2 de 3c be 0b de 9c be
       0.16114654 -0.19572471 -0.18444303 -0.30638155
000070 63 75 40 be cd f5 70 be 5e 6e 32 be b5 ac a8 be
       -0.1879478 -0.23531266 -0.17424914 -0.32944265
000080 20 fb 98 be fd fd a5 bd 71 42 76 be 62 07 b1 be
       -0.29879093 -0.08105085 -0.24048783 -0.34575945
000090 fb a5 4a 3e 1c d1 94 be d0 8e 56 3d c1 3a a0 be
       0.19789879 -0.29065788 0.05238229 -0.31294826
0000a0 13 1a 50 3e 1c 37 5d 3d 37 7b 83 bd c8 d8 55 be
       0.20322447 0.054007635 -0.06419986 -0.20883477
0000b0 d9 08 21 3e 63 83 06 be 9a 0c c9 bc 28 2c e6 bd
       0.15726031 -0.13136058 -0.024542142 -0.11238891
0000c0 fe 34 fa 3d 62 a3 b0 3d aa 7d c5 bd 7f d3 dc 3d
       0.12217139 0.08624913 -0.09643109 0.10782527
0000d0 cf 29 52 3e b8 a6 1b 3e 72 2a 3a 3e e4 66 2a be
       0.20523761 0.15200317 0.18180254 -0.16640812
0000e0 69 37 a6 3e 67 8a 94 3e 3a 0b 37 3e 19 16 64 3e
       0.3246415 0.29011843 0.17875376 0.22274055
0000f0 8f b4 57 be 35 fd be bd c5 50 a9 be b5 22 a6 bd
       -0.21064971 -0.09325639 -0.33069435 -0.081120886
000100 4f 83 81 be 9f b7 5d 3d 41 6b 3d 3e 49 3d 01 3e
       -0.25295493 0.054130193 0.18497945 0.12621035
000110 db 3d 5f 3d 25 5d 75 3e 4b 7c 8c 3e b6 ed 8b 3e
       0.05450235 0.23961313 0.27438578 0.27329797
000120 ef ac 45 3d 1c a8 1f bd 71 9e af 3e 24 49 97 3e
       0.048260625 -0.03897868 0.3430057 0.2954799
000130 c6 8f 84 3e 9d bf b2 3d 3a b2 80 be fa 4a 7c be
       0.2589094 0.087279536 -0.25135976 -0.24637976
000140 ff da 28 be 67 c1 8f 3e 50 39 1e be cf e3 8c be
       -0.1648979 0.28077242 -0.1545155 -0.27517554
000150 fb 0a 0f 3e d8 f9 ed bd dc 32 7e be 9d e9 eb 3d
       0.13969032 -0.116199195 -0.24824089 0.115191676
000160 f8 1b 16 be 2f 02 96 3d 21 df fe 3d be 32 b1 be
       -0.14659107 0.07324635 0.12444902 -0.34609026
000170 61 2f fb bc 44 2e 1c be 83 fc c3 be 51 0d f6 bc
       -0.03066224 -0.15252024 -0.3827859 -0.030035647
000180 52 f1 82 be dd 63 a1 bd c8 b4 db 3d 5f 5f 01 3e
       -0.25574738 -0.078803755 0.10727841 0.12634037
000190 b1 84 6c 3e e6 8d 70 3e 8c 90 2b 3e fb 53 c7 3d
       0.23097493 0.2349163 0.16754359 0.09732815
0001a0 5b 6f 5d be de a9 bf 3e c5 71 70 be fb 2b 16 3e
       -0.2162451 0.37434286 -0.234809 0.14665215
0001b0 ab 69 d9 3d 67 88 cc 3e 9d 96 a4 be 72 f4 c2 39
       0.10615858 0.39947817 -0.3214616 0.0003718469
0001c0 34 4f 90 3e f1 82 be 3c 9d c7 e0 3e cd 77 ec bd
       0.28185427 0.023255797 0.43902293 -0.11546288
0001d0 98 79 22 bd f9 bc 69 3e d0 b4 d8 be c5 32 6e be
       -0.039666742 0.22825994 -0.4232545 -0.23261555
0001e0 c1 d5 fe bd 1e a2 f9 3e ea d4 04 be 0b a0 5e be
       -0.12443114 0.48756498 -0.12971845 -0.21740739
0001f0 b5 8f 31 3e bb 07 42 3e 45 9f f7 3d d8 a7 93 be
       0.17339976 0.18948261 0.12090925 -0.28838992

fc2.weight f4 [128, 128]
000000 d2 ad 5a bd b3 74 eb 3b 93 c9 23 3d 50 7b 6e 3d
       -0.053388424 0.0071855425 0.039987158 0.05822307
000010 a4 a3 3f 3d b2 23 7f 3d 62 65 c1 bc 54 d8 84 bd
       0.04678692 0.0622899 -0.023607913 -0.06486574
000020 16 bf 33 bc dc df c7 bc 86 f5 28 3d 43 35 46 3d
       -0.010970851 -0.024398737 0.041249774 0.048390638
000030 f8 12 05 3d ab c6 ad 3d 29 dc 73 bd 36 0e f8 3b
       0.032488793 0.084851585 -0.059536133 0.0075700535
000040 ee d5 42 3d bb 49 80 3c c4 30 f0 bb b8 08 8d bc
       0.0475673 0.015660157 -0.007330032 -0.017216071
000050 35 1d 69 3d 94 27 52 3d b7 dc 37 bd fc c6 65 3d
       0.05691262 0.051307276 -0.044888224 0.05609797
000060 e3 c6 d8 bb 07 de a1 3c 11 34 a1 bd 9f 9e 16 3c
       -0.006615506 0.019759191 -0.07871259 0.009193092
000070 71 c4 3e bd e1 de 44 bd 62 d8 fb bc dc f2 54 3d
       -0.04657406 -0.048064116 -0.030742828 0.05198942
000080 90 f2 19 bd a1 f2 a8 bd 4f 71 b4 3d 79 1c 8d bd
       -0.03758484 -0.08249403 0.088106744 -0.06890196
000090 63 6e a4 bd 16 d8 7d 3d 3c 84 59 bc 20 33 aa 3b
       -0.08028867 0.061973654 -0.013276156 0.005194083
0000a0 fa 6a a6 bd 69 e9 8e bd 5e 37 8a bd 8f ef 7e bd
       -0.08125873 -0.06978113 -0.06748842 -0.06224018
0000b0 02 30 b1 bd 09 e8 8f bd 7c 18 8b b9 09 75 6f 3b
       -0.08651735 -0.07026679 -0.00026530388 0.0036538264
0000c0 dd 1b 0d 3d 0f 52 2a 3d 62 f9 93 3d 4b d2 a4 bd
       0.0344504 0.041582163 0.072253 -0.08047923
0000d0 97 f3 a7 bd 33 7e 84 bd d5 32 29 bd eb 52 90 bd
       -0.08200758 -0.06469383 -0.041308243 -0.07047065
0000e0 68 6a 91 bd 3b 85 7d 3d 27 d2 6a 3c 77 27 63 bd
       -0.071003735 0.061894637 0.014332331 -0.05545756
0000f0 16 c0 ad bd e2 2e 82 3d 5a a5 92 3d fe c1 ce 3c
       -0.08483903 0.063565984 0.071604446 0.025238987
000100 05 ce bc bb 40 e6 8b bc 5c 09 15 3d a8 5f 79 3d
       -0.005761864 -0.017077565 0.03638588 0.06088224
000110 4d db aa bc ba 74 48 bc bc 28 33 bd 34 f1 bb 3c
       -0.020856524 -0.012234861 -0.04374002 0.022942163
000120 49 da ea bb 70 79 dc bc 91 fc ac 3d 7a eb d9 bc
       -0.007167135 -0.026913375 0.08446611 -0.026601542
000130 0c 63 ff bc b5 a4 98 3d b7 fb 85 bd 3a e2 ae bd
       -0.031175159 0.074532904 -0.065421514 -0.08539243
000140 64 6d 5f bd be 2e a9 3d 31 86 29 3d 16 87 b4 3d
       -0.054547682 0.082608685 0.04138774 0.08814828
000150 a8 e1 5f 3d 0c 63 87 3d 00 3d a6 3c e6 1f 3a bd
       0.054658562 0.066106886 0.020292759 -0.045440577
000160 bc fc b7 ba 81 4d 6a bd 3c bc bf 3c 90 73 1d 3d
       -0.0014037113 -0.05720282 0.023405187 0.038440287
000170 e9 61 21 3d 4a c1 7b 3d dc 73 56 3c bc f2 b4 bd
       0.039400015 0.06146363 0.013089146 -0.088353604
000180 92 e4 6c bc 94 00 5e 3d ce 6b 7e 3d a7 8b ad bc
       -0.014458792 0.05419977 0.06211453 -0.021184755
000190 ae b5 42 3d bd 4a fb bc b2 43 ab bd dd f0 e2 3c
       0.047536545 -0.030675286 -0.08362521 0.027702743
0001a0 c5 79 99 3c 36 85 b9 bc 45 b3 c2 bc 1f 36 5a bd
       0.018734822 -0.022646528 -0.023767123 -0.05327427
0001b0 a5 9d ad 3d d8 27 b1 bd 35 00 d1 3b 7e a5 81 bd
       0.08477334 -0.08650178 0.0063781985 -0.06330393
0001c0 83 16 88 bd 9c 74 97 bc aa 7f f4 bc 92 66 ac 3d
       -0.06644919 -0.01848822 -0.029846031 0.08418001
0001d0 94 96 56 bd 8e 3a 51 bd 42 62 8a bd 0c 1c 0e 3d
       -0.052389696 -0.051081233 -0.067570224 0.034694716
0001e0 f7 d7 5d 3d 63 04 95 bd e7 ee 00 bd 38 86 f8 3c
       0.05416104 -0.07276227 -0.031477835 0.030337438
0001f0 f9 a8 2b bd c1 cd 59 bd 60 89 16 3d 2f 4f 88 3d
       -0.04190919 -0.053174738 0.036752105 0.06655728
000200 2b 47 dc 3c 46 41 4a 3d 29 1e 25 be c9 09 2b be
       0.026889404 0.049378656 -0.16124786 -0.16702951
000210 88 7d 1f bd 86 8c f7 3d 11 40 a0 bc 33 5f c5 bc
       -0.038938075 0.120873496 -0.0195618 -0.024093246
000220 e8 0f 1e be 83 41 c5 bd 8d dc 6f be 28 e4 dd bd
       -0.15435755 -0.09631636 -0.23423977 -0.10834533
000230 a6 95 36 be ba a2 7d bd ec 82 5a be 4e 2a bb bc
       -0.17830524 -0.061922766 -0.21339005 -0.02284732
000240 62 79 6b 3d 10 23 80 bd e2 c4 39 bc 58 f9 54 be
       0.057488807 -0.06256688 -0.011338444 -0.20798242
000250 df 80 0a 3e 66 d5 7b be 73 f2 ca bc 38 92 14 3e
       0.13525723 -0.24593124 -0.024773812 0.14508903
000260 38 d8 99 bc 46 59 b2 bc 0a df 47 3b 97 f0 4a 3c
       -0.018779859 -0.021771085 0.0030497932 0.012386463
000270 57 b2 73 bd 07 9f 8f 3d bf aa 04 3d 90 c0 15 bd
       -0.05949625 0.07012754 0.0323894 -0.036560595
000280 c7 3d f5 bc 84 af 18 bd 3a 7d bd bd a5 2d 8c bd
       -0.029936684 -0.03727676 -0.09252401 -0.068446435
000290 6b 86 4f bd e2 e9 37 3c 11 c6 eb bd c3 b7 c3 3c
       -0.0506653 0.011225196 -0.115123875 0.023891335
0002a0 8d 45 ab bd 6c 5b 52 be f3 dd 8c bc c6 cc be bd
       -0.08362875 -0.20542687 -0.017195677 -0.09316401
0002b0 5f 3c 0b be e2 52 f3 3d c8 f3 5d bd 8f 85 8b bd
       -0.13597248 0.11881043 -0.054187566 -0.06812584
0002c0 01 48 2d bd 32 b4 bb bd 5f 34 44 be ca bc bb bc
       -0.042304996 -0.09165229 -0.19160603 -0.02291717
0002d0 7b 62 0f be 6a 74 b9 bd b0 19 50 bd 46 b3 fc bd
       -0.14002411 -0.09055407 -0.050805748 -0.12338881
0002e0 ac 75 17 be ec 6b 9d bd ab bb 43 be 62 82 af 3d
       -0.14790982 -0.076866 -0.19114558 0.085697904
0002f0 b6 0f 7e 3d 18 fb db 3d 62 cd 82 3d 50 05 96 bd
       0.062026702 0.10741252 0.0638683 -0.07325232
000300 e4 94 9a bc 3b cb c9 bd bf 56 9c bd c7 0e cd bb
       -0.018869825 -0.09853216 -0.07633733 -0.006257865
000310 00 6f 9a bd 6b bb 02 be 13 87 82 be f9 a2 25 be
       -0.07540703 -0.12766807 -0.25493678 -0.1617545
000320 fc c3 9e bd ce 9f f6 bd a7 e6 0e be a3 8f 05 3e
       -0.07752225 -0.12042199 -0.13955174 0.13043074
000330 2b fa 43 bd 7c db 18 bc 2d 6c e3 3d f3 1f 02 be
       -0.047846 -0.009329673 0.11104617 -0.127075
000340 00 bb ed 3b e2 40 36 be 56 cb f2 bd a2 c4 50 3d
       0.007254958 -0.17798188 -0.118551895 0.050968774
000350 43 86 20 bc 43 3c a9 3d be b7 93 bd 34 26 9b bc
       -0.0097976355 0.08263447 -0.072127804 -0.018939115
000360 4e eb b8 bd 35 67 65 bd 3c 7e 1a be 8e 54 8e 3d
       -0.09029256 -0.05600663 -0.15087217 0.06949721
000370 61 10 23 bd f4 43 15 be 8d a8 a7 bd 62 a6 bc bd
       -0.039810542 -0.14576703 -0.081864454 -0.092114225
000380 05 55 61 3d 85 31 69 bd 6d d0 24 bc d3 8d 84 3b
       0.05501272 -0.05693199 -0.010059458 0.004045227
000390 22 20 b0 3c 2d 12 f6 bc 05 c1 e8 bc 2b b8 0e be
       0.021499697 -0.030037964 -0.028412351 -0.13937442
0003a0 d5 4e 34 3c f2 b8 b5 bb a7 fc 02 be e0 0f 7b bd
       0.011005123 -0.005545729 -0.12791692 -0.061294436
0003b0 03 57 6d 3d af 89 8e bd fc 12 16 be 42 b5 f9 bd
       0.05794431 -0.06959855 -0.1465568 -0.12192775
0003c0 94 66 ef bc 1c 4d 11 be 2c bc 1e be c5 94 72 bc
       -0.029223718 -0.14189571 -0.1550147 -0.014805977
0003d0 7b aa 03 3e 02 62 f1 3d 56 c5 33 bd ee 4d 86 bd
       0.12858002 0.11786272 -0.043889366 -0.06557833
0003e0 18 69 12 3d dd 34 2d be fb 8a 42 bd 24 28 90 bd
       0.035744756 -0.16914697 -0.047495823 -0.07038906
0003f0 ce ba 3e be 0b 03 82 bd 1d 37 13 bc 12 bc b0 3c
       -0.18625948 -0.06348237 -0.008985308 0.021574054

fc2.bias f4 [128]
000000 1d c2 90 3d 1c eb 58 bd 84 bc 16 bd 7e 66 b8 bd
       0.07068274 -0.052958593 -0.036800876 -0.09003924
000010 6a 52 07 bc 3f 3f 0a be 66 2a cb 3c 40 67 d4 bc
       -0.008259395 -0.13500689 0.02480049 -0.02592814
000020 54 35 19 3e c6 8e ac bd 33 b1 08 bd dc 72 12 be
       0.1496175 -0.08425669 -0.033372115 -0.14301628
000030 ef 57 8f 3d bd ca a0 bd 8c 4b 91 bd 9f 35 09 3e
       0.06999194 -0.07851169 -0.070944875 0.13399361
000040 08 13 5e 3d 91 10 6a bd 00 2e 87 3d 71 9c e7 3d
       0.05421737 -0.057144705 0.06600571 0.11309136
000050 ac 5f e9 bc 0e c4 f1 bd 9a b7 79 3d 81 a9 e3 bc
       -0.028488003 -0.118049726 0.06096611 -0.027790787
000060 e3 c9 0d 3e 9f 87 8c bd 0c 6c d4 3b 5a 46 0a 3d
       0.13846545 -0.06861805 0.0064826068 0.0337585
000070 e2 09 fb 3c 94 2e 97 3d fa b9 76 bd 77 ed ca bd
       0.03064436 0.07381931 -0.060235955 -0.09908574
000080 d5 0c 66 bd 22 5a f7 bb a5 d1 ec bd a0 34 de ba
       -0.05616458 -0.0075485865 -0.11563424 -0.0016952939
000090 80 77 b5 bc 7e e9 b7 3d 13 87 02 bc b7 71 4f 3d
       -0.022151709 0.08980082 -0.0079667745 0.050645556
0000a0 de 48 b2 bd d5 3f 6a bd b0 98 58 3d 66 d6 bf 3c
       -0.087053046 -0.05718978 0.05287999 0.023417663
0000b0 3b b0 81 3c 61 e8 f1 3c ea 72 f3 bd d6 db 08 bd
       0.015831104 0.029529752 -0.118871525 -0.033412777
0000c0 15 1f 85 bd f6 ba 97 3d b8 14 12 3e d2 d3 80 3d
       -0.06500069 0.07408707 0.14265716 0.062904015
0000d0 60 f3 12 bd bf d5 0c be cf db 85 bc e2 62 01 bc
       -0.03587663 -0.13753413 -0.016340164 -0.007897111
0000e0 82 68 72 3d 1c fe d9 bc bd c0 6a bd bb c2 c0 bb
       0.059181698 -0.026610427 -0.057312716 -0.0058825887
0000f0 a4 48 95 bc 08 4b 9e bd 0c 8b 55 3d dc d2 1b be
       -0.018223114 -0.07729155 0.05213456 -0.15217155
000100 6c 10 d2 bd 56 f8 37 bb 9c cc db bb be 53 78 3d
       -0.102570385 -0.0028071604 -0.006707741 0.060626738
000110 31 4b a7 bd 5e 03 48 bc 58 49 10 be 23 e2 0a be
       -0.081686385 -0.012207834 -0.14090478 -0.13562827
000120 d2 fa 76 3c 47 47 ce bd e7 8e 72 3d 8f ee 05 3e
       0.015074449 -0.10072189 0.059218314 0.13079284
000130 4e 7e 94 bc 6d b1 a5 3d 2b 82 57 3d 5f 0a 8b bd
       -0.018126633 0.08090482 0.052614372 -0.067890875
000140 18 79 7e 3d 59 bf 3f bc 23 c8 c6 3d b9 07 ee 3b
       0.062127203 -0.011703336 0.09706142 0.007264104
000150 03 12 cf bd dd 50 a0 bd f0 5e d2 bd 47 77 86 bd
       -0.10110857 -0.078279234 -0.10272014 -0.06565719
000160 6e 38 b5 bd 3e 9b 43 3d 87 a2 6b 3d 28 14 16 be
       -0.08848654 0.047755472 0.057528045 -0.14656126
000170 f1 f8 a2 bd ca 30 f1 bd c9 12 84 bd bc e9 9f bd
       -0.07957638 -0.11776884 -0.064488955 -0.07808253
000180 43 c9 57 bc a2 84 72 3c 10 38 19 3e f5 5b 6a bd
       -0.013170543 0.01480213 0.14962792 -0.057216603
000190 ca 89 f7 bd 14 73 d6 bd db 58 0e bd 20 47 9d bc
       -0.12086828 -0.10471168 -0.034752708 -0.019198954
0001a0 63 38 06 be f6 ec 88 3c a6 62 f2 3d 9f 87 9d 3d
       -0.13107447 0.016714554 0.11835222 0.07691883
0001b0 79 7c 4c 3d b8 61 da 3d 2a a5 f4 3b 52 f6 bd 3d
       0.049923394 0.106631696 0.007465978 0.092754975
0001c0 2a 4c 6a bd 8a b5 0b bd 18 77 58 bd 4e 6e b8 bd
       -0.057201542 -0.034108676 -0.05284795 -0.09005414
0001d0 7c 37 92 bd 5e 64 fc 3d 91 d3 af bc b9 77 27 bd
       -0.07139489 0.12323831 -0.021463187 -0.04088566
0001e0 94 1f 04 3d d7 45 c2 3d 36 97 b4 bd 6d 3c 6c bd
       0.032256678 0.09485977 -0.08817904 -0.057674814
0001f0 a0 cf 59 3d 68 9e 99 3c 8b 93 c5 bd 49 2c f8 3c
       0.053176522 0.018752292 -0.09647282 0.030294554

out.weight f4 [1, 128]
000000 9a 82 01 3d 4e 48 0f ba 8b 09 dc bc e8 d2 e3 bb
       0.031618692 -0.00054657913 -0.02686002 -0.006952632
000010 8f 06 02 3e 22 80 f9 bc 6f a5 d9 bc e2 7c c5 b9
       0.12697814 -0.030456606 -0.026568143 -0.00037667813
000020 b4 e6 16 3e 8b f7 fa 3c 1e ba 4e bb 77 4f 9c bc
       0.14736444 0.030635616 -0.003154404 -0.01908086
000030 35 a1 ac 3d ff b8 56 bd e5 fb 7f bc 3d a6 e4 3d
       0.08429185 -0.05242252 -0.015624021 0.1116452
000040 3d b5 ae 3d 1d a9 63 3d 92 e9 1d 3d df b6 01 3e
       0.08530662 0.0555812 0.038552828 0.12667416
000050 ea 9c 0a bb 4a 7a c4 b9 8c 0f 9b 3d 5a c5 7e 3c
       -0.0021150657 -0.00037475146 0.07571325 0.015549982
000060 94 03 9a 3d 4a 3e b5 3c df 1e a4 39 5d 3e b1 3d
       0.07520214 0.022124428 0.00031303518 0.08654473
000070 f1 d9 23 3e a1 f1 a4 3d 07 12 da bc 5d a4 69 3c
       0.16001107 0.080538996 -0.026619924 0.014260379
000080 7b 03 0a 3d 5e 21 1e bd 61 03 61 3d 19 86 22 bd
       0.033694725 -0.03860604 0.054934863 -0.039678667
000090 ab 27 c9 3b 90 56 56 3e 63 35 93 bb d4 d1 da 3d
       0.006138762 0.20931458 -0.004492448 0.10684553
0000a0 94 2a e0 3c 16 75 77 bb 39 60 ad 3d b5 5c ad 3d
       0.027364053 -0.0037758998 0.08465619 0.08464948
0000b0 f5 80 28 3e a7 71 15 3c af f8 c8 3c 92 c5 89 3d
       0.16455443 0.009121335 0.024532644 0.06727137
0000c0 9a 00 a5 3d 82 4d 15 bd 26 18 f4 3d 6d 61 2a 3e
       0.08056755 -0.03645087 0.119186684 0.16638727
0000d0 98 43 92 3c 0c f1 5d 3d f4 61 10 bd 1e 64 3b 3e
       0.017854497 0.05418496 -0.035249665 0.1829991
0000e0 40 b3 18 3e 59 77 72 bc 0d a7 e1 3c 08 04 ad 3b
       0.14912128 -0.0147989625 0.027545476 0.0052800216
0000f0 6b 0f 0e 3c 51 47 66 bc f5 f6 25 3e e9 01 71 bc
       0.008670668 -0.014055089 0.16207488 -0.014709928
000100 b1 b7 f0 ba 7d 17 e8 3c 77 d5 0e 3d 23 5f 0b 3e
       -0.0018365291 0.028331513 0.034871545 0.1361051
000110 ae 13 b8 3c a9 50 e7 3d 6b a3 c6 3b bc 16 e5 bb
       0.022470322 0.112946816 0.0060619614 -0.0069912355
000120 d5 14 2d 3e c0 2f 57 bd 82 eb 51 3d 39 bb a2 3d
       0.16902478 -0.052535772 0.05124999 0.07945866
000130 0f 41 a2 3d fb 5f 05 3e 16 98 06 bc 08 61 2a bd
       0.07922565 0.13024895 -0.008214971 -0.041596442
000140 f8 cc 9e 3c 9f bf 0b 3e 41 cf 24 3e 66 04 ab bd
       0.019384846 0.13647316 0.16094686 -0.08350448
000150 2f cc 85 bc fa 8f fd 3c 8d 3a 71 bc 7f 36 d9 bb
       -0.016332714 0.030952442 -0.014723432 -0.006628811
000160 54 6b 69 bd 2e 0c 0c bd 90 a2 5a bd 70 53 16 3d
       -0.05698712 -0.034191303 -0.053377688 0.036700666
000170 d5 dc ad 3d 8b f7 9e bc ed f4 a3 3d e5 6d ed 3b
       0.08489386 -0.019405147 0.080057 0.0072457665
000180 22 81 bd 3d 8c 03 9d 3d e5 91 e7 3d a1 ce ae 3c
       0.09253146 0.07666692 0.11307124 0.021338763
000190 51 1c e7 3c ce c9 48 bd 5d a3 25 bd b6 66 3c 3a
       0.028211745 -0.04902058 -0.040439 0.0007186936
0001a0 0d 7c a4 3c 96 9e 47 bd 5d da e0 3d b3 c4 15 bc
       0.020078683 -0.048735224 0.109791495 -0.009141135
0001b0 4d 0a 95 3d 7c 82 d2 3d 86 fe fd 3d 88 fa 9f 3d
       0.07277355 0.10278794 0.12402062 0.07811457
0001c0 ed 2a bf bc d1 78 0d bc c2 bd 02 3d 2b 33 87 3c
       -0.023335898 -0.008634762 0.03191925 0.016503891
0001d0 16 15 2e 3c d4 be d9 3d cb 4a ce bc ec ba d9 3b
       0.0106251445 0.10632101 -0.025182148 0.0066445973
0001e0 1b ee cb 3c 91 6e ab 3d 79 01 a1 3c 9c 3f 26 bc
       0.024893811 0.08370698 0.019654023 -0.010147002
0001f0 49 0a ad 3d b3 e4 0e 3e a9 a8 29 bd 20 3f 6f bd
       0.08449227 0.1395443 -0.041420612 -0.05840981
