Final_Submission/trading-GYM/dqn_model_weights.pth (torch, 78956 bytes, 6 tensors)

fc1.weight f4 [128, 8]
000000 bd ee 6b 3e 13 00 2a be db d1 40 3d 5b d1 b7 bc
       0.2304029 -0.16601591 0.047075134 -0.022438696
000010 a9 f2 84 3e 58 7c 3b 3e 47 4c 2e 3d 6f a0 c1 bd
       0.25966385 0.18309152 0.042553212 -0.094544284
000020 bd 91 e6 bd c7 9c e9 bd 18 24 b3 be 81 3c 9d 3d
       -0.11258266 -0.11406856 -0.34988475 0.07677556
000030 b8 47 24 3d ab 2b 9c 3e 40 c3 eb bd 1a 63 35 3b
       0.04010746 0.30502066 -0.1151185 0.0027677477
000040 55 d8 b0 be 47 09 23 be f7 a4 4b 3e 78 74 af be
       -0.34540048 -0.15921508 0.19887148 -0.34268546
000050 e5 20 91 be d8 3d b7 be 61 37 bd bd 17 c3 74 3e
       -0.2834541 -0.3578937 -0.09239078 0.23902546
000060 66 9f 28 3e 58 89 7b be af 98 b4 be 2a de 31 3e
       0.16467056 -0.24564111 -0.35272738 0.17369905
000070 d0 68 45 bc c2 8c 89 3e 01 66 c6 3d 51 cf 9f 3e
       -0.012048915 0.26865202 0.096874245 0.31212857
000080 f8 53 2f be 30 0d ab be af 89 20 be a2 18 7c 3e
       -0.17121875 -0.334085 -0.15677522 0.24618772
000090 49 76 8a be 8c 11 da 3d 5c e4 bd 3d e4 22 f4 bc
       -0.2704337 0.10647878 0.09272072 -0.029801793
0000a0 b8 a6 fd bc 45 dd 7c 3e 41 8c 7f 3e 6d 94 75 be
       -0.030963287 0.24693783 0.24955846 -0.23982401
0000b0 0d 63 a2 3d 12 fb e5 bd e6 77 69 be a8 85 ee 3c
       0.07929049 -0.112295285 -0.22799644 0.029116467
0000c0 9f 53 ae 3e d3 5d 60 be 14 10 87 be f9 42 57 3e
       0.34048173 -0.21910791 -0.26379454 0.21021642
0000d0 1c 32 b1 3e 71 8d 5b 3d b8 07 32 be 1e fa 43 3e
       0.34608543 0.053601686 -0.17385757 0.19138381
0000e0 8c 72 ae 3e 8f 14 fb bd 31 f3 19 be f7 3e 96 be
       0.34071767 -0.122597806 -0.15034176 -0.29344913
0000f0 ed 7c 4a 3d e0 b0 02 be 0a 30 2c 3c f9 3e 13 be
       0.049435545 -0.12762785 0.0105095 -0.14379491
000100 07 f2 e1 3d ff cf 7b be 21 62 09 3e d5 a2 83 bd
       0.11032491 -0.24591063 0.1341634 -0.06427542
000110 a7 f7 93 be fd 7d 96 3e b2 12 3f bd 26 98 b1 be
       -0.2889988 0.29392996 -0.04664869 -0.34686393
000120 0b 60 96 3e b2 50 fe bd 1b 85 15 3e 1b 71 1e 3e
       0.2937015 -0.12417735 0.14601557 0.15472834
000130 6a ce ec 3d 81 5e 89 3e 4f 58 33 3e 4a 7e 5f 3e
       0.11562808 0.26829913 0.17514156 0.21825519
000140 d5 ca 97 be 8f ba 5f 3e fc f6 08 3e 91 c7 52 be
       -0.29646936 0.2184851 0.13375467 -0.20583941
000150 8e e8 25 be 80 d8 af 3e b7 ee 53 be a5 70 66 3e
       -0.16201994 0.34344864 -0.20696531 0.22503908
000160 c0 be 93 3e c4 f0 5e be e5 cc f2 bd 56 e9 8e 3e
       0.28856468 -0.21771532 -0.11855487 0.27912396
000170 9a 5f 29 be 38 45 19 be fa bd e0 bd d3 96 1b be
       -0.16540375 -0.14967811 -0.10973735 -0.15194254
000180 c5 c0 87 be ba c7 25 3e ff 9a 16 be b2 5b 18 be
       -0.2651426 0.16189471 -0.14707564 -0.14878729
000190 ac d0 10 3e 78 b7 a5 3e 1d f8 27 3e 06 43 9d be
       0.14142102 0.32366538 0.16403241 -0.30715197
0001a0 de 4f 97 3e 8c e4 ae 3e 8a 2c 38 be 65 fa 9c be
       0.2955312 0.34158742 -0.1798574 -0.30659786
0001b0 b3 82 9e 3d d9 97 26 3c 76 d7 4c 3e 4e 66 a5 3e
       0.07739773 0.010168039 0.20004067 0.32304615
0001c0 62 ec a4 be 11 bf 54 be 79 f7 66 be 82 e2 89 3e
       -0.32211596 -0.20776011 -0.22555341 0.26930624
0001d0 98 63 b3 be d6 71 a7 bd 20 c2 1d 3c e0 af c7 bd
       -0.35036922 -0.08176009 0.009628803 -0.09750342
0001e0 24 12 a5 3e d3 23 2f 3e b2 6e fb 3c 0b 14 66 be
       0.32240403 0.1710351 0.030692432 -0.22468583
0001f0 03 c3 b2 3e 82 32 8b 3e 1d a0 16 3e 63 12 9e 3c
       0.34914407 0.27186972 0.14709516 0.019295877
000200 25 25 6b bd d8 5a 72 be 9a 1c 6b 3e 1a 5d 96 be
       -0.05740847 -0.23667467 0.2296013 -0.29367906
000210 68 81 b1 bc bc 42 28 3e f2 5e 92 3d 89 3d 53 3e
       -0.021668151 0.16431707 0.07147016 0.20628943
000220 b2 a0 91 3e ad f1 c4 3d 47 f4 5d 3e 86 e1 a4 3e
       0.28442913 0.096164085 0.21675216 0.3220331
000230 b5 af 4d 3e 93 db 28 be 48 e9 1e be 09 74 05 3e
       0.20086558 -0.16490011 -0.15518677 0.13032545
000240 1c 51 3d be 22 47 82 3e f8 86 0b bc d9 bf a2 be
       -0.18487972 0.25444895 -0.008516066 -0.31786993
000250 6d 30 37 3d 35 c1 3d be b6 7e a7 be 7e 41 01 be
       0.044723917 -0.18530734 -0.3271386 -0.1262264
000260 78 fa 4b 3e 9e 6c af 3e 0f 37 ad be 05 a6 57 bd
       0.19919765 0.34262556 -0.3383107 -0.052648563
000270 43 74 6e 3e 08 26 ed bd 57 40 b9 be c5 9a b5 be
       0.23286538 -0.115795195 -0.361819 -0.35469642
000280 cf 38 88 3e 09 2f 34 3e ec 9f 1b 3e 38 ce 19 3e
       0.26605842 0.17596067 0.15197724 0.15020072
000290 cf 2a 9b be 76 d8 91 bc 7c ad 3b 3e 41 16 a9 be
       -0.30306098 -0.017803412 0.18327898 -0.3302479
0002a0 3c 0f 90 3e f9 db a4 be 50 06 ab be 6c f1 37 be
       0.28136623 -0.32199076 -0.33403254 -0.17963189
0002b0 11 b7 f1 3d 71 4a 8c bd 61 d8 2d 3e b8 43 a8 be
       0.11802495 -0.06850136 0.16977073 -0.32864165
0002c0 f7 39 c3 3a 7c 85 89 3e c4 ed 4c be e2 3b 9c bd
       0.0014894594 0.26859653 -0.20012575 -0.07628609
0002d0 6b 7b 98 be c7 5f 23 be 50 b3 80 bd 3b dd 70 3e
       -0.2978166 -0.15954505 -0.06284201 0.23521893
0002e0 82 de e3 3d ab e0 58 3e 52 5b 24 3e 7a dd a5 3e
       0.11126424 0.21179454 0.16050461 0.32395536
0002f0 d0 80 8e be 48 8f 8b bd f8 3c af 3e 7f 61 56 bd
       -0.2783265 -0.06814438 0.34226203 -0.052339073
000300 78 6b 72 3e 7a c9 5f 3e 3a b8 11 be 5d f9 69 be
       0.23673809 0.21854201 -0.14230433 -0.22849031
000310 8e b0 42 3c 82 b4 6e 3e 5a 5e af 3c 57 20 a9 be
       0.011882914 0.23311046 0.021407295 -0.33032486
000320 79 fe 8d 3e 39 f6 a2 be d8 0f 6c be 52 29 a3 bc
       0.2773321 -0.31828478 -0.23052919 -0.019917164
000330 62 da ae be 2b f8 98 3e b5 85 07 be 47 62 85 3e
       -0.34150988 0.29876837 -0.13234599 0.26051542
000340 96 60 4b 3e 6f 6f 1d 3e c9 a7 3c bd f0 14 29 bd
       0.19861063 0.1537454 -0.04605845 -0.041279733
000350 22 5a 70 be 2e ad 73 3c 69 04 a0 3e c5 47 1f bd
       -0.23471883 0.014872832 0.31253365 -0.038886804
000360 16 45 38 3e 7c b6 84 3e e1 3e b9 bd f6 da b1 3e
       0.17995104 0.25920475 -0.09045196 0.34737366
000370 09 3f e3 3d b1 6b 15 3e af 8c b5 3c 87 de 99 3e
       0.110960074 0.14591862 0.02216181 0.30052587
000380 3e 56 c2 bd b9 f6 3d 3e 33 93 63 be bb ca 9a 3d
       -0.09489106 0.18551148 -0.22224121 0.07558199
000390 2f ec 32 3e db 48 28 bd a9 b4 01 3e 63 34 46 3c
       0.1747291 -0.041085105 0.12666573 0.012097451
0003a0 5e 16 88 bd 99 bd db 3d 28 03 bd bd 3a 28 05 be
       -0.06644891 0.10729522 -0.09229118 -0.13003626
0003b0 6a 05 3e bd 7f 49 9f be 68 80 31 3e b1 93 42 3e
       -0.046391882 -0.3111076 0.1733414 0.19001652
0003c0 df 0d 64 3e ba 39 8c bd c0 fe 73 3e 19 21 62 3e
       0.22270916 -0.06846948 0.23827648 0.22082938
0003d0 9d ab 91 3e 8f fe 73 3e 28 37 ea bd 3b 55 08 3d
       0.28451243 0.23827575 -0.114363015 0.033284407
0003e0 da 21 79 3e 54 09 9b bd 3c 4e a9 be ac 9c ba 3d
       0.2432932 -0.075701386 -0.330675 0.09111914
0003f0 8d 9f 64 be 64 d2 0d bd 23 10 98 3e e9 42 29 3e
       -0.22326489 -0.034624472 0.2969981 0.1652943

fc1.bias f4 [128]
000000 68 fd 9f 3e a7 3b 20 3e 31 c7 73 be fc 7f ae 3e
       0.3124802 0.15647756 -0.23806454 0.3408202
000010 fd 1b 5a bd 76 65 b2 3e 65 3c 9a 3e b6 2b 3c 3d
       -0.053249348 0.34843034 0.30124202 0.045940123
000020 5d 91 88 bd dd 89 5b bd 95 7b 52 be c4 a6 17 3e
       -0.06668351 -0.053598274 -0.20554955 0.1480971
000030 90 7f 64 be d7 45 fe bd 53 4a 80 3e 4f 01 9d be
       -0.22314286 -0.12415665 0.25056705 -0.3066506
000040 95 11 7b bd 75 41 1e 3e 7d 89 2a 3e 65 24 43 be
       -0.061296064 0.15454657 0.1665401 -0.19056852
000050 e5 d0 b2 be a0 75 4e 3e 00 5e 62 3e 2b bb 1b 3e
       -0.34925 0.20162058 0.2210617 0.15208118
000060 d9 2d 9f 3e cd b6 c2 bd 18 10 11 bd 92 f2 cb bd
       0.31089666 -0.09507523 -0.03541574 -0.09958376
000070 49 e7 06 3e 81 b2 81 be 3f 5b af bd 40 93 3a bd
       0.13174166 -0.253315 -0.08562326 -0.045550585
000080 34 05 19 3e c2 27 0b bb 55 9a a2 3e 46 82 98 bd
       0.14943391 -0.0021233414 0.3175837 -0.07446723
000090 69 6f 80 3e 58 00 9a 3e 75 fe 63 3e 39 dd c5 bc
       0.25085 0.30078387 0.22265036 -0.024153339
0000a0 d1 1b 14 3e 2b bf 73 3d 8b d1 b6 bd f7 be 80 3e
       0.14463736 0.059508484 -0.08926686 0.25145695
0000b0 7b 5e 39 3e 0b 19 a7 3c 73 88 9d 3c 91 a3 e1 bd
       0.18102448 0.020397684 0.019230103 -0.11017526
0000c0 b5 6f 4f bd 64 91 91 be db ac 27 be 34 41 a9 3e
       -0.05064364 -0.28431237 -0.16374533 0.3305756
0000d0 88 8b 99 be 3e 60 a2 be ec 85 43 be 10 7a db 3d
       -0.29989266 -0.31714052 -0.19094056 0.10716641
0000e0 13 e9 be 3c db 4f b7 3d be 26 92 be 1f 98 f0 3c
       0.023304498 0.08950778 -0.28545183 0.029369412
0000f0 10 b1 3d 3e a6 84 81 3e f7 28 59 3e bf c8 41 be
       0.18524575 0.25296515 0.21207033 -0.18924235
000100 5f 0a 91 be 61 00 99 3e 6a b4 84 3d 5d df 93 3d
       -0.28328225 0.29883102 0.06479724 0.072203375
000110 fa e9 b1 be ca cd 72 be 44 c2 48 3e bb 52 8f 3b
       -0.34748822 -0.23711315 0.19605356 0.004373876
000120 4f 3c 86 3b f7 7c 2a 3e 07 50 af 3e 2b 71 52 3c
       0.004096545 0.16649233 0.34240744 0.012844364
000130 63 d1 51 3e 45 e6 39 3c 0b 0e bb 3d 42 96 0b 3e
       0.20490031 0.011346404 0.09133538 0.13631538
000140 0b 60 14 be ca 04 56 3d 27 85 d4 bc 0b 10 34 bd
       -0.14489762 0.05225066 -0.025942398 -0.043960612
000150 4a f1 16 be bd c1 20 be 31 13 34 be e7 9f 3a be
       -0.14740482 -0.15698905 -0.17585446 -0.1822506
000160 94 ed 26 be 9f a5 93 be c9 3a 5c be eb 02 85 be
       -0.16301566 -0.28837296 -0.215068 -0.2597879
000170 79 c2 60 be 1b 15 a0 3e 96 b4 7e 3e 26 0f 90 3e
       -0.21949185 0.31266102 0.24873576 0.28136557
000180 c5 5b 98 be f8 c3 89 bc 70 25 9d 3d 25 0a 5d be
       -0.29757515 -0.016817078 0.07673156 -0.21585901
000190 ba 0b 03 be 79 97 9b 3e ea f1 31 be 35 6d 1f 3d
       -0.12797442 0.30389002 -0.17377439 0.038922507
0001a0 a5 b2 8b 3e 89 10 2e 3e e2 50 7d 3e 55 fa 80 be
       0.27284732 0.16998495 0.24737886 -0.25190988
0001b0 5f 0f 90 be 02 13 88 3c 22 e7 84 3e 4d 17 77 be
       -0.28136727 0.016610626 0.2595759 -0.24129982
0001c0 68 60 76 3e a7 4e 28 3e e8 9c 6c 3e d4 c1 cd bd
       0.24060214 0.16436253 0.2310673 -0.100467354
0001d0 f6 b9 30 bd 0d 6c a1 be ee 7f 11 be 18 4f c8 3c
       -0.043146096 -0.3152775 -0.14208958 0.024451777
0001e0 9a f9 21 3e 9c c4 06 3e 71 8a 9f 3d 1f 2e 7b 3e
       0.15817872 0.13160938 0.077900775 0.24529313
0001f0 89 39 b3 be 7a 4b ad be 17 7e 9e be b7 19 d9 bd
       -0.35004833 -0.33846647 -0.30955574 -0.10600608

fc2.weight f4 [128, 128]
000000 53 90 6a 3d 92 35 8b 3d 37 31 cb bd 16 09 51 bd
       0.057266545 0.06797327 -0.09921496 -0.051034056
000010 8f 42 65 3d 3a bf 66 3c ab 82 4c bc 81 8e 3e 3d
       0.05597168 0.014083678 -0.012482326 0.04652262
000020 7d 0c ba bc fc d3 24 3c 72 0a 8e 3d a7 05 a2 bc
       -0.022711033 0.010060307 0.06935586 -0.019778086
000030 63 20 e7 bc cd 62 4e bd 0e d7 40 3c f5 f2 2f bd
       -0.028213685 -0.050387193 0.011770023 -0.04295631
000040 8e 7c 9e 3c d4 c3 45 3d 4b 52 89 3d 27 fa a2 3d
       0.019346502 0.04828246 0.06705149 0.07957869
000050 99 f6 4e 3d 72 9c af 3c c0 a3 90 3d cd f1 99 bc
       0.050528143 0.021436904 0.07062483 -0.018792057
000060 ee 2a 36 3d a6 d3 d5 3c e9 24 67 3d 67 24 b8 3c
       0.044474535 0.026101898 0.056431685 0.022478295
000070 3a 9e 25 3d d5 23 a3 bb e4 a6 b2 bc 80 48 bd 3d
       0.0404341 -0.0049786367 -0.021808095 0.09242344
000080 fe 6a 5e bd 88 5e e8 3c 8a 5a d3 3c e9 d2 81 bd
       -0.054301254 0.028365389 0.025800008 -0.06339056
000090 ee b5 1b 3d b7 bc b7 bd 23 64 f0 bc 3e 97 85 bd
       0.0380153 -0.089715414 -0.029344624 -0.06522988
0000a0 76 2e cd ba 92 69 d9 bd 75 eb 1b bc 87 a4 b6 bc
       -0.0015654105 -0.10615839 -0.009516587 -0.02229525
0000b0 14 bc 9e bc 01 e4 32 bc 0b e2 a0 bd a1 7f bb 3c
       -0.019376792 -0.010918618 -0.07855614 0.022888007
0000c0 d4 ec 54 3d 25 53 2b bd 7d 8b 43 3d b7 5b 2d bb
       0.05198367 -0.04182734 0.04774045 -0.0026452371
0000d0 7d 3f 99 bd dd a5 17 bd 38 35 6a bd 06 78 a6 3c
       -0.074828126 -0.037023414 -0.05717966 0.020320904
0000e0 6b 4a 67 bb d4 94 ec ba ce 97 ea 3c d4 b4 e4 3c
       -0.003529216 -0.0018049725 0.02863684 0.027918257
0000f0 11 14 81 3d 0c fd af bd 31 a9 56 3d 6d 8f 64 bc
       0.063026555 -0.08593187 0.052407447 -0.013950211
000100 1c 4d 6a 3d 86 15 91 bd f8 01 ac bd d2 cc 41 3d
       0.057202443 -0.070841834 -0.08398813 0.047314472
000110 bd ae c0 bc 93 f0 6f 3d 6a b3 d1 bc ac 6d 8b bc
       -0.023520822 0.05857904 -0.025598247 -0.017020069
000120 51 3a 8f 3d 7b 26 b9 3c 9e d2 12 3d 01 c6 54 3d
       0.06993545 0.022601357 0.03584539 0.051946644
000130 92 8b af bd bf 19 89 bd eb 36 a3 3d bc 12 bb bd
       -0.08571543 -0.06694364 0.07969459 -0.09134433
000140 6e e7 ac 3d 1f df 10 3c 03 b0 61 3d 42 26 98 3d
       0.08442579 0.008842259 0.0550995 0.07429172
000150 ce 5a 80 ba 4b e2 08 bd fc 39 93 bd db 56 a4 bd
       -0.0009792687 -0.033418935 -0.07188794 -0.08024379
000160 d7 e9 83 3c 20 53 f3 3c 47 a7 4d 3c 84 29 a4 3d
       0.016102714 0.029702723 0.012552089 0.08015731
000170 44 67 09 bd 67 86 e0 bd be 4a ef bc f2 2c 6e 3d
       -0.033545747 -0.10963135 -0.029210445 0.058148332
000180 74 43 13 bd 8d ed de 3a cf 7c 60 3d 0e 85 82 3d
       -0.035953 0.0017008052 0.054806527 0.063730344
000190 21 1f f1 bd 29 eb 5f bc 9a 3a fd bb d6 d0 b6 3d
       -0.117735155 -0.013666906 -0.007727933 0.08926551
0001a0 0a 2f ca bd 47 00 d7 3b f9 a7 f3 bc a9 c7 9b bd
       -0.09872253 0.0065613124 -0.029743182 -0.076064415
0001b0 61 95 e6 3c 31 ad 7a bd fe f8 cb 3c 8d 32 62 3d
       0.028147401 -0.061200324 0.024899002 0.05522399
0001c0 88 cd e8 3b 7d ba ce bb fa 90 93 bd ba 1a 48 bd
       0.0071045794 -0.006308852 -0.072053865 -0.048853613
0001d0 18 5f 37 3d e7 1b 28 bd 1a e2 b4 bb d4 18 0f bd
       0.044768423 -0.041042235 -0.0055201175 -0.034935787
0001e0 c8 21 c1 3c 0f 35 85 bc 6f 54 f5 bc 5b a0 1f 3d
       0.023575678 -0.016260652 -0.029947488 0.038971286
0001f0 4f 9e 19 bd 40 66 4b 3d 5b c2 24 3d 1f b6 59 3d
       -0.03750449 0.04965806 0.040224414 0.0531522
000200 4c ed a4 3c 9e 85 4b bd 0b 00 8e bd 6a 64 1a 3d
       0.020132683 -0.049687974 -0.06933602 0.03769342
000210 cd 2f 1a 3c ca 44 17 bc 61 fc 6b bd fa 2b 5d bc
       0.009410811 -0.009232709 -0.057613734 -0.013499254
000220 05 e9 2c 3d 7c 57 a5 3d 07 a6 8e bb 02 0e 54 3d
       0.042214412 0.08073327 -0.004353288 0.05177117
000230 95 0e 77 3b 07 00 9d 3d db d0 b9 bd e7 7a 3f bb
       0.00376979 0.07666021 -0.09073039 -0.0029217543
000240 6e 58 73 bd 16 45 56 bd 6a c1 05 bd 1c 87 db 3c
       -0.059410505 -0.05231198 -0.032655157 0.026797824
000250 0f 25 84 bc 05 d4 80 bc d5 5f e2 3c 4c eb 85 bd
       -0.016130952 -0.015726099 0.027633587 -0.0653902
000260 4d 8a b5 bd e0 81 47 3d 77 d0 94 3d 09 74 82 3d
       -0.088642694 0.048707843 0.07266324 0.06369788
000270 21 4e a1 3c 0d e6 9e bd 08 a5 8e bd 50 df 8d bd
       0.019690575 -0.077587225 -0.06965071 -0.06927359
000280 42 b5 05 bd 02 67 b0 bc 40 fa 9e 3d d2 51 47 3d
       -0.032643564 -0.021533493 0.07762575 0.048662014
000290 25 57 43 3d e2 f3 f5 bc 96 66 9b 3c b2 fd 94 3d
       0.04769053 -0.030023519 0.018969815 0.07274951
0002a0 d2 94 5f bd e3 f7 a5 bd 85 d0 44 bd 4f 8f 92 3d
       -0.054585285 -0.08103921 -0.048050422 0.0715624
0002b0 8d b7 85 3d b0 56 60 bd ad da 8a 3c 83 5f 88 bb
       0.0652915 -0.05477017 0.016949976 -0.0041617765
0002c0 66 48 b8 bc f8 a9 99 bd 00 ed 97 bd e4 af 24 3d
       -0.02249546 -0.07503122 -0.07418251 0.040206805
0002d0 b2 a3 12 3d de ca af 3d dc fc a9 3c 1f 09 af bc
       0.035800643 0.08583616 0.020750456 -0.021366654
0002e0 06 af c8 bc bb 1e 30 3d ac ef 7a bc a8 34 64 bd
       -0.02449752 0.042998057 -0.015315931 -0.05571428
0002f0 3e f9 72 bd e7 79 5f 3d 23 22 77 bd 9b d4 64 3d
       -0.059319727 0.054559615 -0.06033529 0.05586682
000300 e1 f9 2c bd b1 26 6b bd 0d 1f 7b 3d e1 ef b2 3d
       -0.04223049 -0.057409946 0.06130891 0.087371595
000310 bb d3 f8 bc 32 eb a6 bd 74 58 d9 3c 5b b7 41 bd
       -0.030374398 -0.08150329 0.026531436 -0.047294002
000320 bf e2 9a 3d 25 4e a2 3d d1 64 8c bb 2b ec 00 bd
       0.0756278 0.07925061 -0.004284479 -0.031475227
000330 a2 13 e8 3c ec a3 b9 bd df 18 ad bd f5 75 81 3d
       0.028329674 -0.09064469 -0.084520094 0.06321327
000340 12 3f 86 3d ab 04 1e bd 9a 83 70 bd f4 e6 5d 3d
       0.065549985 -0.03857867 -0.058719255 0.054175332
000350 37 7b 76 38 a1 52 39 bd b1 c2 8a bd 34 b3 9a bd
       5.8765723e-05 -0.045244817 -0.06775416 -0.075537115
000360 1a 65 8a 3c 8e bb 23 bd db c5 b8 bd 16 9a 27 bd
       0.016893912 -0.039973788 -0.09022113 -0.040918432
000370 36 d6 ca 3c 6b 8c 4c bd 0f bf 17 3c f1 c3 76 3d
       0.024760347 -0.0499386 0.0092618605 0.060245458
000380 ee 37 de 3c 00 ad 89 bd ce 34 dd bc 82 50 9a bd
       0.027126279 -0.0672245 -0.027002718 -0.07534887
000390 10 0e 96 3d 45 34 84 bc d7 c5 86 bd 37 45 e2 3b
       0.07326901 -0.016138205 -0.06580704 0.0069052237
0003a0 99 1f 13 bd 44 cb db bb fb 39 97 3d 36 3a 6b 3a
       -0.035918806 -0.0067075808 0.07384106 0.00089732127
0003b0 2f 82 2b bd e8 7c 70 bd 2d 53 ac bd d5 f2 ad bc
       -0.0418722 -0.05871287 -0.08414302 -0.021233955
0003c0 d2 de 16 3d 48 d5 38 bd af e4 2e 3d cc c3 98 3d
       0.03683359 -0.045125276 0.04269856 0.0745922
0003d0 f1 bf 8d bd 36 98 06 bc 18 28 88 3d e0 b8 79 3c
       -0.069213755 -0.008215001 0.06648272 0.015241832
0003e0 96 e6 9d 3b dd 7c 00 bb e5 54 e7 bc d0 1d 78 3d
       0.0048187478 -0.0019605674 -0.028238723 0.060575306
0003f0 69 03 45 3a df d0 52 3d b9 29 ac bd fe 2c 30 3b
       0.0007515462 0.051468726 -0.084063955 0.0026882286

fc2.bias f4 [128]
000000 b3 02 1a bc 0f 39 b7 bc ff 81 5f bd 2a 5a 1c bd
       -0.009400058 -0.022366075 -0.054567333 -0.038171925
000010 59 f4 24 bd d3 6c 92 3d 67 72 ae bc 35 5f 2c 3d
       -0.04027209 0.07149663 -0.021294786 0.042082984
000020 87 26 8d bc 0a 06 aa 3d 57 4b 51 bd b2 1c 95 bb
       -0.017230285 0.08301933 -0.05109724 -0.00455054
000030 a2 8c f3 3c d3 99 48 bd 46 45 8f bd 03 cb 8d 3c
       0.029730145 -0.048974823 -0.06995635 0.017308718
000040 fc 7e 46 bd 2e 6e 9a 3d 25 43 32 bb dd 39 9a 3d
       -0.048460945 0.07540546 -0.0027200666 0.07530568
000050 d7 1f ab bc 4b 4c 99 bc 12 4b a9 bd 9c 14 c5 3c
       -0.020889206 -0.018713137 -0.08266272 0.024057679
000060 58 b1 a2 bc 60 37 f1 3c 65 2d 4e bd 22 2a 1f 3c
       -0.019859955 0.02944535 -0.05033626 0.009714635
000070 2a 2c a9 bd 02 8e af ba 66 3a 37 3c 2d f2 50 bd
       -0.08260377 -0.0013393762 0.011183357 -0.051012207
000080 86 c5 05 3d 65 ca 44 bd 2d e9 7f bb 4e 90 ad bc
       0.032659076 -0.04804458 -0.0039048896 -0.021186974
000090 dc 5d aa bd 8d c5 8e bd 7f 15 71 3d 2b cd b0 3d
       -0.083186835 -0.069712736 0.05885839 0.08632883
0000a0 35 d7 0b 3d 03 50 45 bd 36 6a d7 3a 3d 6d f6 39
       0.034140784 -0.04817201 0.0016434852 0.00047002165
0000b0 c4 46 8c 3d 93 69 ba 3d f9 5d 90 bd e6 91 7a 3d
       0.06849435 0.09102168 -0.07049174 0.061174296
0000c0 8a e5 c2 bd a6 e3 83 bd c8 94 8c bd 9d 91 b5 3d
       -0.09516437 -0.06439905 -0.06864315 0.08865664
0000d0 cd 22 3d 3d a2 ed 35 bd c6 05 f8 bc d7 84 99 3c
       0.046175767 -0.044416077 -0.03027619 0.0187401
0000e0 c2 6f f4 3c 50 84 75 bc 21 4c ad bb 9d 77 7a bd
       0.029838447 -0.014985159 -0.0052886163 -0.06114923
0000f0 44 b8 67 bd 14 e6 5c 3c 93 5f 9b 3d c9 1e ca 3d
       -0.056572214 0.013482589 0.07586589 0.09869153
000100 3f 8a d0 3c cc 21 b0 3d ec 32 b1 3d d1 1e 9d 3d
       0.025456546 0.08600196 0.08652291 0.076718934
000110 83 92 c9 3c c2 77 be bd 48 49 a1 3d 9e 3a 9a bd
       0.024605995 -0.09300186 0.078753054 -0.075307116
000120 0a 22 99 bd c8 7c bd bd 99 ee 62 3d 29 ad 9b 3d
       -0.074771956 -0.09252316 0.055403326 0.07601387
000130 0a 0f 9e bd a7 38 0b bd 97 03 25 3a ad cd 6d bc
       -0.07717712 -0.033989575 0.00062947854 -0.014514369
000140 62 f8 e9 3d 87 91 91 3d 1b 56 cb bc 3e 22 ed 3c
       0.114243284 0.07107835 -0.024821332 0.028946992
000150 8e 2a 8c 3d e9 c6 04 bd bf bb cb bd 5c c1 86 3a
       0.06844054 -0.032416258 -0.09947919 0.0010281014
000160 31 3c 91 bc f3 3a 5f 3c e6 c8 bc bc 64 f3 95 bc
       -0.017728897 0.013624894 -0.023045015 -0.018304534
000170 64 4a 7c bc e5 6d ae bc 94 52 43 3d 01 68 21 bd
       -0.0153985955 -0.021292636 0.047686175 -0.039405826
000180 39 d6 34 bd fd c9 48 3d 71 be 94 bd b4 49 ad 3d
       -0.04414961 0.049020756 -0.07262886 0.084613234
000190 c4 c6 27 bc 30 27 af 3d 59 72 48 3d 95 12 71 3d
       -0.0102402605 0.08552396 0.048937175 0.05885561
0001a0 68 6d 9e bd c0 91 97 bd 43 6b 91 3d ac 09 2b ba
       -0.07735711 -0.074008465 0.07100537 -0.00065245735
0001b0 bb ec 29 3c 20 b6 c4 3a 25 8c 96 3d 72 21 08 3d
       0.010371382 0.0015007891 0.07350949 0.03323502
0001c0 1d 4b 8a bd 6a a5 a2 bd 15 0e b7 3d f1 d8 80 3d
       -0.06752608 -0.079417065 0.08938233 0.06291378
0001d0 f0 c5 a6 bb ac 25 0c bd e9 71 a5 bc ae 6e 04 3c
       -0.005089514 -0.034215614 -0.020195918 0.008083029
0001e0 af 80 18 bd 0b d7 4f bd f0 75 a1 3d 2d c7 0c bc
       -0.037232097 -0.05074219 0.07883823 -0.008592409
0001f0 45 8a 2b 3c a5 6e 43 bc 2d d7 8e 3d dd 5c 89 bd
       0.010469978 -0.011928235 0.06974635 -0.067071654

out.weight f4 [11, 128]
000000 18 f9 b2 bd 58 4d 67 bd 82 0f 7e bc 83 ed 2a bd
       -0.08738917 -0.056470245 -0.015506627 -0.041730415
000010 a0 3b b7 bd 5d 64 a0 bb ec 2c 3c 3a 31 bb 30 3d
       -0.089469194 -0.0048947767 0.0007178325 0.04314727
000020 51 9a 7f bd a5 ce 30 bd 04 20 9c 3b d4 eb 90 bd
       -0.062403027 -0.04316582 0.0047645587 -0.07076231
000030 16 69 0d 3c fe bb 9c bd 63 56 11 bc 2e d0 7b bd
       0.0086310115 -0.07653044 -0.008870694 -0.061477832
000040 49 b0 63 3d 09 24 8b bd ee 83 25 3c f1 4b 77 bb
       0.05558804 -0.067939825 0.010102255 -0.0037734474
000050 90 d1 d0 3c c8 7f 9e bd 97 a3 90 3d e0 fa f3 bc
       0.025490552 -0.07739216 0.07062452 -0.029782712
000060 00 35 97 bd fb 12 6f 3d 5e c6 6f bd b9 1e 5d 3c
       -0.07383156 0.05836771 -0.058538787 0.013496094
000070 90 51 e0 3c 34 89 97 bd 9c c6 4f bc 9c 42 c6 3c
       0.027382642 -0.07399216 -0.0126816295 0.024201684
000080 93 23 15 bc 58 0e d6 bc 3c d0 a2 bd 9e 93 a2 3d
       -0.00910272 -0.026129887 -0.07949874 0.07938312
000090 b7 55 89 bd c3 f9 67 3d 47 fb 37 3c 8e 81 9c bd
       -0.06705802 0.056634676 0.011229343 -0.07641898
0000a0 20 44 b4 bd 64 a3 7c 3d 90 db cd 3c a4 c5 23 bc
       -0.08802056 0.06167926 0.02512911 -0.009995852
0000b0 ad 7c b4 bd c9 54 8e 3d c5 b1 e8 3b 0e 85 2f bc
       -0.088128425 0.06949765 0.00710127 -0.010712875
0000c0 7a 9b 80 3c 2c ec 64 3c d4 69 b9 bd ec b5 6a 3d
       0.015699137 0.013972323 -0.09053388 0.0573024
0000d0 d0 0a a5 bd ab ae 1f bd 43 81 4c bc 89 b1 fe bc
       -0.08058703 -0.038984936 -0.01248199 -0.031090515
0000e0 6c ef de bc b8 f5 99 3d 85 9c 95 bc a5 d2 7d bd
       -0.027213775 0.0751757 -0.01826311 -0.061968464
0000f0 3d 5f d9 bd 7a 1a f7 bb ff 67 32 3d dc f8 6a 3d
       -0.106138684 -0.007540998 0.04355621 0.057366237
000100 52 86 81 3d a2 c9 1c bd d9 b9 b3 bd 65 91 22 3d
       0.06324448 -0.03827823 -0.08775682 0.03968944
000110 b3 16 9e bd 64 a4 4a 3d e6 eb 97 bc 3c 06 d7 3b
       -0.07719173 0.04947318 -0.018545102 0.0065620225
000120 a3 49 88 3d c9 9b 18 3d 97 20 85 3b be d9 57 bd
       0.0665467 0.037257943 0.004062723 -0.05269789
000130 72 ea 88 3d 0d 18 1f 3c 0b fe 01 bd a3 2c a7 bc
       0.06685342 0.009710324 -0.031736415 -0.020407027
000140 61 b5 7b bd b9 09 bf bc e5 e1 7f 3d da 0e 26 bd
       -0.061452273 -0.023320066 0.06247129 -0.040541507
000150 ab c3 31 3d a0 db 6d 3d de 72 25 3d 22 71 80 bd
       0.043399494 0.05807078 0.04039275 -0.06271578
000160 05 d7 77 bd 02 b9 c7 bc 64 62 12 bc 84 b3 18 3b
       -0.060507793 -0.02438021 -0.008934591 0.002330036
000170 56 25 9f 3d 71 8c 44 bd 6b a2 ab 3d c4 81 8f 3d
       0.07770793 -0.047985498 0.08380588 0.07007173
000180 ef 91 6c 3c 72 ad a2 bd de a5 1e 3b cd d1 ad bd
       0.01443909 -0.07943238 0.0024207751 -0.08487282
000190 5f 1b 50 bd 83 e6 1c 3d c5 f6 7d bc fc c5 3a bd
       -0.050807353 0.03830577 -0.015500729 -0.04559897
0001a0 26 18 38 bd a5 6b 41 bb 83 9d 5a 3d 97 b3 0d 3c
       -0.044944905 -0.0029513624 0.05337287 0.008648775
0001b0 69 2e 0a 3d a5 d8 37 bd 35 6b 24 3d e8 9d 79 3d
       0.033735666 -0.044884343 0.040141303 0.060941607
0001c0 5b 4a 97 3d 78 a8 74 bd 0f 7b 66 3d bb 34 7d bd
       0.07387229 -0.059730977 0.0562697 -0.061817866
0001d0 79 b9 bd bd 2d 2a 2a bd c1 49 b1 3d 5d ea db 3c
       -0.09263892 -0.04154413 0.086566456 0.026845152
0001e0 34 12 dc 3c 0c 24 92 3c bf 40 24 bd 5d ee ff bc
       0.026864149 0.017839454 -0.04010081 -0.03124159
0001f0 6c d6 42 3d ca 82 66 3d d9 73 34 3d c4 c6 9f bc
       0.04756777 0.056277074 0.044055793 -0.019503959
000200 14 0d c7 bc 45 21 7f 3b d8 2f ac bd 63 da 84 3c
       -0.024298228 0.0038929742 -0.08407563 0.016217416
000210 8a 80 1f 3d 1f d9 a8 3b de bc 6b 3d c8 d8 4d bd
       0.038940944 0.005152836 0.057553165 -0.050255567
000220 30 9e 91 bd f5 2e 7d 3d 82 f0 d5 3c 39 88 f5 bc
       -0.0711025 0.06181236 0.02611566 -0.029972183
000230 dd e6 01 bd ac 7a 9c bd 6f 03 8d bc 34 c9 8d bd
       -0.03171431 -0.07640585 -0.017213551 -0.06923142
000240 38 80 10 bd a4 a7 36 bc 77 54 c1 bd ba c1 69 3d
       -0.03527853 -0.011148367 -0.094399385 0.057069518
000250 db fd 97 bd 0c f0 9f bd 33 01 d0 bc 18 80 98 3d
       -0.07421466 -0.07809457 -0.025391197 0.07446307
000260 9c e9 a5 bc 93 0d 95 3c 08 e7 80 3d 7b ba 84 bc
       -0.020252995 0.01819495 0.06294066 -0.016202202
000270 d6 c2 43 3c 70 be 3d 3d 92 2c 72 bc 19 14 93 3d
       0.011948308 0.046324193 -0.014781134 0.07181568
000280 fa 51 0d 3d b5 c9 25 bd 59 f2 6a 3d 5d 57 79 bd
       0.034502007 -0.040475566 0.057360027 -0.06087433
000290 6f e8 38 bd 73 bf 15 bd 84 d9 49 bd e7 b1 8f bd
       -0.04514354 -0.036559533 -0.049279705 -0.07016354
0002a0 a3 ba 21 bc ed 1b 12 3d 22 18 91 3b 7c 58 e2 bb
       -0.009871158 0.035671163 0.0044279257 -0.006907521
0002b0 37 78 85 3d b3 47 9a bd 33 5d 45 3d a9 c1 df ba
       0.0651707 -0.07533207 0.048184585 -0.0017071265
0002c0 52 2f 23 ba 94 f2 ea bb 64 1d 7f bd c0 41 8e bd
       -0.0006225008 -0.007170031 -0.06228389 -0.069461346
0002d0 68 22 91 3b 20 ec bb bd 18 22 74 3d 47 0d 43 bd
       0.0044291504 -0.09175897 0.059602827 -0.047620084
0002e0 21 f6 64 bd dd 80 58 3d 72 2f aa bd c8 c7 d1 3b
       -0.05589879 0.05285727 -0.08309831 0.0064019896
0002f0 a0 ea df bc 22 25 0a 3d e6 0d 36 3d df 93 59 bd
       -0.027333558 0.03372682 0.04444685 -0.053119536
000300 33 29 b4 bc 3c 51 0d bd 05 cd ad bb 06 1d 38 bd
       -0.021992302 -0.0345013 -0.0053039812 -0.044949554
000310 4e 99 a3 3d d5 71 a8 3c 21 7b 90 bd 98 5d ac bd
       0.07988225 0.020562092 -0.07054735 -0.08416289
000320 46 76 d4 3c 98 6f c8 3c 80 b4 96 bd fa 9c 92 bd
       0.025935303 0.024467275 -0.073586464 -0.07158847
000330 c4 2f 96 bb 04 51 73 bc d3 eb 55 bd 96 f3 aa 3d
       -0.004583331 -0.014850859 -0.052226853 0.083472416
000340 5f c4 8d 3d 7c cb 20 3d 5f 4a 32 3d 62 fd f5 3c
       0.069222204 0.039256558 0.043527957 0.030028049
000350 00 96 89 bd 11 87 6b 3c 13 69 82 bd d8 5a aa 3c
       -0.06718063 0.014375464 -0.063676976 0.02079527
000360 96 7b ba 3b d6 03 70 3d 21 a2 0e bb 69 ce f8 3c
       0.005691002 0.05859741 -0.0021764117 0.030371862
000370 e1 89 97 bc 73 e4 9b bd 66 aa 81 3b a1 30 4f 3d
       -0.018498363 -0.076119326 0.0039570807 0.050583486
000380 d5 3c 48 bd a6 d3 50 bd 4f e1 52 3d ae 12 ac bd
       -0.04888614 -0.050983094 0.051484402 -0.08402
000390 18 2f 8e bd e9 65 70 3d 63 48 97 bd 42 50 9c 3d
       -0.06942576 0.05869094 -0.073868535 0.076324955
0003a0 57 e8 fa bb b3 b1 6b 3d e2 eb 92 bd 55 ce a1 3c
       -0.0076570916 0.057542514 -0.07173897 0.019751707
0003b0 21 a2 aa 3c 84 61 34 3d f0 1a 0e 3d b0 32 7f bd
       0.020829262 0.04403831 0.03469366 -0.0623042
0003c0 d2 19 e5 3b 3f 5b 15 3d a1 68 b5 bd da 22 4f 3d
       0.0069916034 0.036463972 -0.08857847 0.050570346
0003d0 fd e5 60 3d 9e 2f f6 3c b0 63 e1 3c cc cc b0 3d
       0.054906834 0.030052003 0.027513355 0.08632812
0003e0 18 da 93 bb 19 57 83 bd bc ae a5 bd d9 0c 70 3d
       -0.004512083 -0.06413097 -0.080899686 0.058606002
0003f0 78 4a a7 bd c3 65 ab bc cd 2b b3 bd 87 a7 f7 3c
       -0.08168501 -0.020922547 -0.08748589 0.03023125

out.bias f4 [11]
000000 38 2d aa bd de 99 b7 3c 04 1d 3e bd d2 a2 c4 bb
       -0.08309406 0.022412237 -0.04641439 -0.006000855
000010 8d 4c 93 bd ea 5e 3f bd 32 90 70 bd 62 3e cd 3c
       -0.07192335 -0.046721376 -0.058731265 0.02505416
000020 6b 50 56 bc 76 fa 85 3d 5b 8d b3 bc
       -0.013080697 0.06541912 -0.02191799
