Final_Submission/trading-GYM/ppo_policy_model_weights.pth (torch, 24626 bytes, 6 tensors)

fc1.weight f4 [64, 8]
00000000: 8769 95be 0c2c 573e dc80 cf3d 9ffc aabd
00000010: dac2 eabd e385 98be 2003 95be 24a8 d13d
00000020: eb18 21be e0b0 47bd a7d0 ae3e 6de1 07be
00000030: 38ee 4ebe d473 f1bd 0910 ab3e bff6 0ebe
00000040: d30f 873e b60d e9bd 29da 71be c23b 09be
00000050: 050b 1cbd 90aa 21be 4b99 83be 9b02 02be
00000060: 2be2 1f3e bc28 713e 2589 993e 983f 5bbe
00000070: 7cab 8abe d550 7d3e c1e1 22be 8591 2abe
00000080: 9c9d 6c3e 7515 31be 16ef a2bd cf95 313e
00000090: 7ff4 f93d c1ff 51be a059 3b3e 5f44 50be
000000a0: 9bbb 033e 28ec 9cbd e3d4 88bd b51c afbe
000000b0: caac 4e3e f4a0 5a3e ac4f 7fbe 0df5 60be
000000c0: 8513 2bbd f94d 8dbd 0d30 303c 6df4 973d
000000d0: 6215 62be e54f 01be f293 b83e bc1c 72be
000000e0: 1521 17bc 0083 60be 805e afbe 8fcd 1b3d
000000f0: e574 0ebe 6434 aabd 18cb 823e d869 11be
00000100: d9e4 823c 3d0d 8dbe 1fe6 243e a0a0 a8be
00000110: 3fba 073e 3db4 a6bd 3427 d33c 0487 a0be
00000120: bbc0 80be eef0 70be c1f1 9bbd 5cc5 a6be
00000130: be6c 1a3e cdc4 763e 0b40 95be bfb7 98be
00000140: 52ee a23e 0b45 693e 8db6 923e 6d72 80be
00000150: 2339 7a3c 6f44 0fbe 1768 babc 4d9b 8c3e
00000160: d3d9 dcbc 34d9 0f3e 0605 b2be 2263 48be
00000170: 4200 a3bc 76d0 28be d1c5 143e d057 a3be
00000180: 23fd 0a3d b100 06be b6d1 353e 1481 53bd
00000190: a519 b7bd 25e3 9dbe 1c06 1a3e fde4 213e
000001a0: f6cd 50be c7e6 aa3e 0c89 a1be 6042 cebd
000001b0: 70b1 273e 5d1a 9b3d 53a7 883e 9b70 253e
000001c0: 4641 3cbc 459a 0e3e cbdf 4ebe 4309 fd3d
000001d0: 7dab 22be ea93 623e 0825 75be 011e 853e
000001e0: 9a01 ad3e d741 e63d 7eb7 1e3e 41ea 263d
000001f0: f2db 77be e81d a73e 1776 1d3e e63b 4abd
00000200: 740b 1e3c ddc2 913e 1249 1a3e e0a3 afbd
00000210: 3371 81bd f9da cf3e 7f56 893e ff74 743e
00000220: 6750 18be 6ba4 b43d 7d34 b43e 98ce 943e
00000230: fa15 673e d5f2 b53e a2d0 9e3e 1232 2e3e
00000240: 7c41 983e f2ae 92be bb3a a3be c8ba 9e3d
00000250: 9d4a 78be 9fd4 b53d 69cf 583e 4d09 293d
00000260: 193b c13e 7c51 59be 2145 3f3e 36db df3c
00000270: 3784 19be 6946 433e eecf 85be 37a4 92be
00000280: 422c 93be e29f 303e eeda 843e 2e2d 91be
00000290: 08a5 323e 9076 1b3e 3567 d4bd 3057 3d3e
000002a0: 2172 7a3e 7c81 623e 6abc 73bd b49d 0bbe
000002b0: 0472 5a3e 7523 8abe f13b 9abe daa2 bfbc
000002c0: 67c9 d5bd b391 9e3e d4f0 0bbd bc95 7abe
000002d0: 4590 81bd 1931 a33e bdc6 283d 11d2 85be
000002e0: dd05 973e 3bdd ed3d 4b14 fabd 4a63 593d
000002f0: 42db 52be 7ae2 1bbc d170 813e 25fc 013d
00000300: 5aab e63d ed11 863e 6ca4 96be 459d 31bd
00000310: 2977 3fbe cb89 5a3d 63d5 8dbe 85b6 3abc
00000320: 3cca a73d d0b0 87bd c2ea abbe 962a b3be
00000330: 7c96 9c3d d4d1 79ba cb1f 273e 4428 db3d
00000340: e6cc bebe 21d0 813e b4f1 103e 5ef2 b3be
00000350: 0871 7b3e e0ff 253e 5dd7 01bd 962a 96be
00000360: 9933 1bbe 7177 bc3c 291e 7e3e b913 1c3e
00000370: 5e35 8b3e 1881 80bc 1686 34be 4147 8b3e
00000380: 26a3 54be d0b6 afbd 75da ca3e ef9a a0be
00000390: fd2e 94be d571 9f3e cfe2 8c3e 3dc1 e03b
000003a0: 10b4 03be f5ee ad3e 97b3 f9bb 7940 5cbe
000003b0: 3c28 ecbd 3aaf e83d 707e 8d3c 1176 ba3c
000003c0: ef2e f13c 6012 38be a84b 263e 8635 babe
000003d0: 2bcb fabd 2834 663d ade9 cabe 772e 1b3d
000003e0: 1133 43be cd6e 26be 51f1 08bd 4070 29bd
000003f0: 9862 563e 1fae 9e3e 7832 a33c 617d 043e
-0.29182073 0.21012896 0.10132 -0.08348965 -0.11462946 -0.29789647 -0.29103947 0.102371484
-0.15732162 -0.048752666 0.34143564 -0.13269587 -0.2020806 -0.117896706 0.3341067 -0.13961314
0.2637926 -0.11379568 -0.23618378 -0.13401702 -0.038096447 -0.1578772 -0.2570289 -0.12696306
0.1561362 0.23550695 0.29987445 -0.21410978 -0.27083957 0.24737866 -0.15906431 -0.16657074
0.23106998 -0.17293341 -0.07955758 0.17342304 0.12204837 -0.20507719 0.18295908 -0.20338582
0.12864535 -0.07662231 -0.0668123 -0.3420159 0.20183101 0.21350461 -0.24932736 -0.2196848
-0.041766662 -0.06899638 0.010753644 0.074196674 -0.2207847 -0.12628134 0.36050373 -0.23643774
-0.009224196 -0.21924973 -0.34251785 0.038037833 -0.13911779 -0.08310774 0.25545573 -0.14200532
0.015978264 -0.27549163 0.16103409 -0.32935047 0.13254641 -0.081398465 0.02577553 -0.3135301
-0.25147042 -0.23529407 -0.0761447 -0.32572448 0.15080544 0.24098511 -0.29150423 -0.29827687
0.3182245 0.22780244 0.286549 -0.250873 0.0152724115 -0.13990949 -0.022754712 0.27462235
-0.026959335 0.140477 -0.34769458 -0.19569066 -0.019897584 -0.16485772 0.14528586 -0.31902933
0.033932816 -0.13086201 0.1775578 -0.05163677 -0.08940438 -0.3083736 0.15041393 0.15810008
-0.20391068 0.33379194 -0.3154987 -0.10071254 0.16376281 0.07573388 0.26690158 0.16156237
-0.011490172 0.13926037 -0.20202558 0.12355282 -0.1588573 0.22126737 -0.23939908 0.25999454
0.33790284 0.11243027 0.15499684 0.040750746 -0.24204996 0.32640004 0.15377079 -0.04937353
0.009646285 0.2846898 0.15066937 -0.085761786 -0.06320419 0.4059675 0.26823804 0.23872755
-0.14874421 0.08820423 0.35196295 0.2906387 0.22566977 0.3553683 0.3101855 0.17011288
0.2973746 -0.28649098 -0.31880745 0.077504694 -0.24247213 0.08878445 0.2117287 0.041268636
0.377404 -0.2122249 0.18678714 0.027326208 -0.14991842 0.19069828 -0.261352 -0.2864091
-0.28744704 0.1724849 0.2594828 -0.28354782 0.17445767 0.15181947 -0.10371248 0.1849029
0.24457599 0.22119707 -0.059505858 -0.13634378 0.21332556 -0.26980177 -0.30123857 -0.023393083
-0.10438805 0.30970535 -0.03416522 -0.24471182 -0.06326345 0.31873396 0.041205157 -0.2613683
0.2949666 0.11614462 -0.12210902 0.053073205 -0.20591453 -0.009514445 0.25281385 0.031734604
0.112631515 0.2618555 -0.2942232 -0.043362875 -0.186978 0.053354066 -0.27701864 -0.011396055
0.0819287 -0.06625521 -0.33577543 -0.34993428 0.0764589 -0.0009529863 0.16320722 0.107010394
-0.372657 0.25354102 0.14154702 -0.3514585 0.24554837 0.1621089 -0.031699527 -0.29329365
-0.15156402 0.023006173 0.24816193 0.15241899 0.27189153 -0.015686557 -0.17629275 0.272028
-0.20765361 -0.085797906 0.39619794 -0.31368205 -0.289421 0.31141534 0.2751679 0.0068589733
-0.12861657 0.33971372 -0.0076202857 -0.2150897 -0.115311116 0.11361547 0.017272204 0.022761377
0.029441325 -0.1797576 0.16239798 -0.3636896 -0.122457825 0.056202084 -0.39631405 0.03788611
-0.19062449 -0.16253205 -0.033433262 -0.041366816 0.20936048 0.3099222 0.019921526 0.12938453

fc1.bias f4 [64]
00000000: 86a1 0f3e 6913 9cbb 3569 babe a73d 66be
00000010: e8b6 dbbd 1e14 e13a 6adc bd3e 9982 14be
00000020: 881b 453d fec4 0dbe 8b69 0bbe a920 253e
00000030: 81d9 8e3e 8e6f 07be f89b d2bd d6a5 6cbe
00000040: 1908 403e 07e3 9d3e 605c 6abe af35 663e
00000050: 20eb 3cbe 94ab 533e e91c da3d 69ab e23d
00000060: 1206 81be a0c0 0e3d c91c 5abd 17a8 04be
00000070: 5f36 88be 0e43 263e ca04 763d 507d 09bd
00000080: b696 dcbd b709 78be 1a2c 203e 9054 673e
00000090: 5a54 8dbe ea3a fabd 93c5 933e 628f 1e3e
000000a0: a7ae 3b3e 852b 6e3e 08e1 813d 2512 6cbe
000000b0: 32fd 3abd 2337 853b 5866 80bd b7dd 19be
000000c0: 4e8b 4b3e 17d0 0d3c 0519 123d 36f4 c73e
000000d0: f7b2 b23d eb8e f9bd 30fd 10be 1da9 b83e
000000e0: b30b a9be 9483 d23d 418e b9be b4a6 d1be
000000f0: 4b86 77be a7b1 32be 938a a63e 381f 943d
0.1402646 -0.004763056 -0.36408392 -0.22484456 -0.10728246 0.0017172133 0.37082225 -0.14502944
0.04812196 -0.13844678 -0.1361448 0.1612574 0.27900317 -0.13226148 -0.10283655 -0.23110136
0.18753089 0.3083727 -0.22886801 0.22481416 -0.18449068 0.2067092 0.106500454 0.1106785
-0.25199944 0.03485167 -0.053250108 -0.12954746 -0.26603982 0.16236517 0.06006316 -0.033566773
-0.10770933 -0.24222456 0.15641823 0.22590852 -0.27603418 -0.12218268 0.28861675 0.15484384
0.18328343 0.23258789 0.063417494 -0.23053797 -0.045651622 0.0040654107 -0.062695205 -0.15025984
0.1987736 0.0086555695 0.03566839 0.39053506 0.08725541 -0.121854626 -0.14159083 0.36066523
-0.33016738 0.10279003 -0.36241344 -0.40947497 -0.24172322 -0.17450581 0.325276 0.07232517

fc2.weight f4 [64, 64]
00000000: 8ff7 623c 8f50 3d3d 76af 94bd f2bc b7bd
00000010: 0dde 393d 8cf3 a5bc 7ef2 e1bb 1601 c0bd
00000020: 0c94 d9bd 374a 20bd fc36 d83c 4066 85bd
00000030: d092 59bd cb24 f03d 0954 30bd 0ac9 cb3c
00000040: fa3d 7e3d f763 a23d e066 dfbd 162e 5cbd
00000050: 44d0 aabc 9da1 d93b 5732 80bd eacf 68bd
00000060: 1245 58bd e165 41bd 78c0 d2bd de92 e9bd
00000070: e4fe 0d3c dd7d 263d f4c5 203d 685f ec3d
00000080: a01b 893d e36e 90bd 0cf7 a73c 07cd d83d
00000090: e502 c4bc 5c47 04be 6d7f 71bd b0f1 e7bd
000000a0: 9b2b 0a3d 6f03 1fbd 4740 0b3d 63e4 6cbc
000000b0: 6dda 393d 55bb e93c 6fe3 d6bc f138 833d
000000c0: b54e b8bc bb06 abbc 9267 52bd 22a6 2e3d
000000d0: 402a babd 035e 41bc 978e 76bd 180c 4bbd
000000e0: 7d8b a2bd b8b9 9bbc d3c6 983d 573a eabd
000000f0: cf24 683d cb54 a73d 0874 bfbd 894e 183d
00000100: bc56 c3bd f5ec c83d ca2e fa3d 1b8d 903c
00000110: b6d8 dfbd 3653 a83d bb27 643d 23e8 ccbd
00000120: 50be 933b 3a0e f7bd d57f cdbd f02c 8cbd
00000130: ec51 19bd 92ad c93d a5e5 9ebd a019 1a3d
00000140: 06a3 d3bc c202 91bd fad2 e8bd c767 ce3d
00000150: 66ac ccbd 8bed ba3d b9a4 57bd c11f 64bd
00000160: 0970 81bd 6b80 06bd 16ed db3c d3c8 903d
00000170: 4441 89bd 0c22 e63c 25f9 efbc b5e0 bb3d
00000180: 61c2 943d 6c8a a3bd 00af a8bc 53b6 e73d
00000190: 5f03 a83d 9b36 783d 2973 883d f63d fbbd
000001a0: f8a8 d7bd 691f 7dbd f5f7 e2bd 84c5 1dbe
000001b0: ea34 c8bc 0556 ea3c 1a91 64bd 699f babd
000001c0: 27df 523d a698 643d 8434 0dbe 648c 323c
000001d0: a055 45bd a05c 10bd 5519 463c 118b c3bd
000001e0: 604b 77bd 3374 9dbc a6ba 833d 1d1d ec3d
000001f0: a5eb b1bc 2307 853d 8443 823d 1c94 5dbd
00000200: 9bbc a2bd 89e5 753c f284 dbbb 0899 043d
00000210: 89ed 3ebd 2eff b3bd b20f 74bd e7ab c4bd
00000220: 5b68 9cbd f807 b5bd f228 1b3d 98bd a63d
00000230: b64c cd3d 4d9b efbb e3e3 cd3d 5516 893d
00000240: 6e35 a0bd 0769 8cbd 81df 223d e72e 6abd
00000250: 7320 2c3b 5b94 423d 0250 4b3d 5aaa f1bc
00000260: 6ac5 bbbc 3c99 dc3d 292b aebd ea15 783d
00000270: 7963 debd ee1c d6bd e86c 25bd 7261 bcbd
00000280: 2a70 6f3d 92a8 babd ceeb a93d e9fa febb
00000290: 04eb d3bd 1ec6 44bb 2abf d3bd c0a1 3cbd
000002a0: c439 5ebd 39fb 91bd 4936 053d 01e4 52bd
000002b0: 7730 1bbd d44b f1bd 96e3 91bc 135b d13b
000002c0: fee2 d1bd f42b 48bd 306e e2bc 275b c43b
000002d0: 553b d7bd a009 a5ba c70b f23d 4b6d 8fbb
000002e0: 503b 20bd 744c 78bd 494b c73d c41a c4bd
000002f0: 4e14 813d 8410 e9bb e07c 793d e23e 5d3d
00000300: 539c a1bc b35a 3ebe 1089 e53d b5ae d43d
00000310: 1b44 2ebd a630 9c3d cafe 15be 41e7 7a3d
00000320: d488 0abe 6bad 4dbd 9592 b23d b239 ef3c
00000330: 44c0 debd abd5 11bd 9870 a6bd 5115 ba3c
00000340: 90f7 1e3d e68d 773d 76e2 c13d 818d d43c
00000350: 2d7b 90bb 2615 83bc bd6c 3ebd 198f f2bd
00000360: 13e5 163d ec79 8c3d f0c7 d73b 03b0 483d
00000370: e4ee da3c 4275 ae3c a636 72bc 041b 513d
00000380: 0ce9 9d3b bf0f 1d3d 7bfc 793d c87a a5bd
00000390: da34 743d 69b7 9dbd 5125 39bd cf39 64bd
000003a0: 1f47 903b 368f b7bd 5ef4 333d 1f46 3f3d
000003b0: 0a5e 7abd 7201 3ebe f663 6fbd b6d6 cbbd
000003c0: 9182 31bd 8a93 eebc 2dbd 3dbd 17d0 633d
000003d0: f270 cbbc c8f2 8e3d 82df 02be 52e3 b2bc
000003e0: 9af9 d73c f038 5abd 6cd4 033e a34b 2abb
000003f0: a21d 95bd 2ce6 ecbd 0531 85bd eebf 4cbd
0.013852968 0.046219405 -0.07260029 -0.08971585 0.04537778 -0.020257734 -0.0068953624 -0.09375207
-0.10623941 -0.039133277 0.026393406 -0.06513643 -0.053118527 0.11725768 -0.043048892 0.024876136
0.062070824 0.07929223 -0.10908294 -0.05375489 -0.020851262 0.0066415803 -0.062596016 -0.056838907
-0.052800246 -0.0472163 -0.10290617 -0.11404966 0.008666728 0.040647376 0.039251283 0.11541635
0.06694722 -0.070524 0.020503543 0.10585981 -0.023927161 -0.12917846 -0.058959413 -0.11325395
0.03373299 -0.038821634 0.033996847 -0.0144587485 0.045374323 0.02853171 -0.026231496 0.06407345
-0.022498468 -0.020877233 -0.051368304 0.042638905 -0.0909009 -0.011802199 -0.060194578 -0.04957208
-0.079367615 -0.019009456 0.07459798 -0.11436909 0.05667573 0.0817047 -0.09348303 0.037184272
-0.09538028 0.09810821 0.122159556 0.01764541 -0.10930006 0.08218996 0.055701952 -0.10005214
0.004508771 -0.120632604 -0.10034148 -0.06844509 -0.037431642 0.09847559 -0.07758645 0.037622094
-0.025834572 -0.07080604 -0.113683656 0.10078388 -0.0999382 0.09127339 -0.052647326 -0.055694345
-0.06320197 -0.032837313 0.02684645 0.07069554 -0.067019016 0.028092407 -0.029293606 0.09173719
0.07263637 -0.07985386 -0.020591259 0.113140725 0.08203768 0.06059895 0.0666259 -0.122676775
-0.10530275 -0.061797533 -0.1108245 -0.15407377 -0.024439294 0.02860547 -0.055802442 -0.09112436
0.051482346 0.05580964 -0.13789564 0.01089773 -0.04817736 -0.035244584 0.012091001 -0.09548009
-0.060374618 -0.019220447 0.06432085 0.115289904 -0.02171881 0.06495502 0.06360534 -0.054096326
-0.0794613 0.015008339 -0.006699198 0.032372504 -0.04661325 -0.08788906 -0.05958528 -0.096031
-0.07637092 -0.088394105 0.037880845 0.08141631 0.10024397 -0.0073122145 0.100532316 0.066937126
-0.07822691 -0.0685597 0.03976393 -0.057173636 0.0026264458 0.047504764 0.04963685 -0.029500175
-0.022921283 0.10771415 -0.08504326 0.060567774 -0.10858817 -0.10454737 -0.040387064 -0.09198274
0.058456577 -0.091141835 0.08296929 -0.0077813757 -0.1034756 -0.0030025314 -0.10339196 -0.046052694
-0.05425431 -0.07127995 0.032522473 -0.051486973 -0.037888017 -0.11782041 -0.017808717 0.0063890307
-0.102483734 -0.048870042 -0.027640432 0.0059923115 -0.105093636 -0.001259137 0.118186526 -0.0043770424
-0.039119065 -0.060619786 0.097311564 -0.09575418 0.06302701 -0.0071125645 0.060910106 0.054015048
-0.019727862 -0.18589287 0.11207783 0.10384885 -0.04254542 0.076264665 -0.14647976 0.061255697
-0.13528758 -0.050214212 0.087193646 0.029202316 -0.108765155 -0.03560416 -0.08126944 0.022715243
0.038810313 0.06043806 0.09467022 0.02594638 -0.004409215 -0.016001295 -0.04649042 -0.118437
0.036839556 0.06859192 0.0065851137 0.048995983 0.02672524 0.021296147 -0.014783537 0.051051155
0.004819041 0.038345095 0.0610318 -0.08080059 0.059620716 -0.07700998 -0.045201603 -0.055719193
0.0044030095 -0.08962862 0.04393422 0.046697732 -0.06112484 -0.18555239 -0.05844494 -0.09953062
-0.04333741 -0.029123086 -0.04632299 0.05561837 -0.02483413 0.069799006 -0.12780574 -0.02183691
0.026364136 -0.053276956 0.12874001 -0.0025985024 -0.07281043 -0.11567339 -0.0650349 -0.049987726

fc2.bias f4 [64]
00000000: ce10 5fbc 36d6 44bd f199 f2bd 0062 843d
00000010: 5280 993d 0eb4 43bd fe00 ad3d dfae cebd
00000020: 881c 3a3c a199 45bd 27b8 d8bd cd27 5f3c
00000030: a831 8ebc 388e 123d 0f30 643c 4106 00be
00000040: 1348 3c3d ba76 cabd 163d aa3d 70ed 1f3d
00000050: dba8 34bd 06e7 973c 63ce 71bd 677c bd3c
00000060: 5272 ad3c 1a51 c53c 3099 bd3d fc49 ca3d
00000070: bfca a33c 5fca babd caea 47bd a007 a3bd
00000080: b55a 073d c6ab 013d 6e9b 0cbd d5c2 5b3d
00000090: 5b3e 2c3d 5cc0 a13d c40b 01be bcc5 003d
000000a0: f665 a1bd 90ec 9bbd 5bd7 a6bd b62e 2dbd
000000b0: 54a4 88bd fdbd 1f3d fcb5 233c 586c db3c
000000c0: a15d f2bd 65b5 ad3d f519 463d 70b5 c83d
000000d0: 475e fd3c 10b8 b13d f7a8 9fbc faa7 aa3d
000000e0: 6357 9e3d bc6e 95bd bdc7 7dbd 3f3d 16bd
000000f0: e368 aabc 8604 983d 3e84 97bd ec59 a43d
-0.013614846 -0.04805585 -0.11845768 0.064640045 0.07495178 -0.047779135 0.08447455 -0.10091948
0.011359341 -0.048242215 -0.10581999 0.013620329 -0.017357662 0.03578016 0.013927474 -0.12502386
0.045967173 -0.098859265 0.083124325 0.039044797 -0.044106346 0.018542778 -0.059034716 0.023130609
0.021172676 0.024086524 0.09257734 0.09877393 0.019994138 -0.091206305 -0.048807897 -0.07960439
0.03304549 0.031657957 -0.034327917 0.053652603 0.042051654 0.07898018 -0.12602144 0.031438574
-0.07880776 -0.0761348 -0.081465445 -0.042280875 -0.06671968 0.038999546 0.009992119 0.02678506
-0.118342645 0.08481864 0.0483646 0.098002315 0.030928744 0.08677685 -0.019489748 0.0833282
0.077315114 -0.072965115 -0.061958063 -0.036679503 -0.020801967 0.07422738 -0.0739827 0.08024964

fc3.weight f4 [11, 64]
00000000: 98aa 953d ccff fabc fbfa 5dbd 42c3 74bd
00000010: 6213 8f3d 220b 5f3d 2cbf 94bc 9c6c df3c
00000020: 197a cc3d 6b47 b5ba 1d8c d3bd f985 d73d
00000030: b4f6 efbc be66 153d a22f 453d 0ec3 063d
00000040: 1668 dcbd 80af c4bd f7c2 073e e28a f0bc
00000050: 6d67 cabd 6558 53bd f959 cb3d 133a 2b3d
00000060: 1a72 093d 574b bebc 9e22 12bd 74ec 653d
00000070: 822a acbd ae70 bebc 6001 20bc b30c 49bc
00000080: a13b b3bd 3393 90bd ed71 f7bd 5afd 1b3e
00000090: 814f 7e3c 76b3 40bd e4f6 e3bb 2a20 29bd
000000a0: 1b83 13bd f325 513c 722e 5bbd f033 303d
000000b0: 8efa b73d 2619 ea3c 2f35 cebb fd6f 723d
000000c0: d310 f0bc 2120 e0bd 1683 e6bd c0a5 653d
000000d0: b672 98bd 4e62 04be 3bcd 583c 6ddc 863d
000000e0: 1e25 63bd c6b8 92bd c948 cbbd 0d9b 57bc
000000f0: 4d09 c03d a59b dbbb 2c08 a13d 21ac 82bd
00000100: a1b2 a23d f66d c1bd c003 c33d 328c cdbd
00000110: a295 afbd acc5 d1bd 6a4e 79bd 7508 10bc
00000120: d326 9dbd 4b0c 20bd 197e 6bbd ef55 ac3d
00000130: ce36 3ebd 0404 593a 8c25 3b3d 7e51 b13d
00000140: 2719 8cbd 7083 0abd 6429 713d bdd3 cf3d
00000150: fb0d 553c 7905 d93d 473e 71bd 22e2 8d3c
00000160: 9257 403c a9f0 44bd 46ad 873d c8d3 81bd
00000170: 7ba7 013d 22d5 d5bd b47b c63d d432 29bc
00000180: 7cef b23d a735 49bd d6c2 13bd 23fa 113c
00000190: 11e9 363c dd89 483d 351b ca3d 0bb6 dcbd
000001a0: 6768 68bd 5ee9 783d c4b7 25bd 2308 123d
000001b0: d91e d9bd 9680 3d3c ce5c 273b 3e6c e43d
000001c0: 9247 97bc 32cd 6dbd 2420 18bc b261 d23d
000001d0: 7652 5dbc 9809 11be 6257 57bd 2c4b bd3c
000001e0: 5e15 573d fdff 863c 9321 1a3b 901e 073d
000001f0: 3734 c7bd 460b 02bd 2786 93bc 54b2 4cbd
00000200: 0128 74bd 1493 dbbd d310 fe3d 47d4 1d3e
00000210: 0db2 5bbd 53ee 10bd 9740 ac3c 4c7f 863d
00000220: 2a3a 223d 01a1 a43d 7a4d 7fbd a675 303c
00000230: fa8a 4dbd 4455 3bbd d53a a4bc 1518 6f3c
00000240: 86e4 a4bd 1d47 c9bd d6ce ba3d 95a5 c3bd
00000250: 6481 82bc 2c33 a8bd f661 8ebd 45bd 9c3d
00000260: 499a 6f3d 2257 d4b9 c0df d43b 838d c6bd
00000270: ce96 b8bc 4150 553d 050b 6cbd ad6e 86bd
00000280: c447 0d3d e8fb aabc 9347 a7bd 1f55 adbc
00000290: 8c03 aebd 8b78 7b3d 59e1 e13c 194e b5bd
000002a0: 44f1 893d cc1e 77bc 1b0e ac3c a4ef a83d
000002b0: de59 7c3c 8582 b5bd d961 e3bc ebf7 57bd
000002c0: e0ea 5a3d 78b0 7cbd 3f62 933c 40ea b6bb
000002d0: de48 0f3e c433 6cbd 2e2a ccbd 4bc2 39bd
000002e0: b82c e4bd 3f03 e83d ee5a eabd 4c6d 69bd
000002f0: 1723 663c 17b0 37bd 1e02 893d 89cd 3a3d
00000300: fd6b 193d 9aac 97bd 3670 e4bc 3f5f 90bd
00000310: 93b7 8bbd 8b49 f7bd 0096 25bd 4446 7cbd
00000320: f1eb a83c 85c4 d53d dbba c93c daff c53d
00000330: 7dd2 533d cc76 4b3d ee76 42bc 1f79 4fbd
00000340: f04d 6abd c690 f5bc 4733 c03d 46f4 223d
00000350: ea4d da3d 2690 52bd 7c14 803d bc2d afbc
00000360: 8a32 953d 600a c1bd 5bbb c23d 83e4 d03d
00000370: eb14 d2bd 0bb5 e1bd 57cd 27bc f84d edbb
00000380: b4aa d2bd a2be eabd a075 a6bd ee52 40bd
00000390: 9e70 963d 834f d73b 1ae8 1bbc 558c 173c
000003a0: 5b5e 16bd bba1 c73d 0878 90bd 627c 4a3d
000003b0: 7839 4a3d ef95 1ebd 7eae 913d a21a 223c
000003c0: 9951 de3d 0d8f b7bc 242b b9bd 386c f7bc
000003d0: 07c9 e1bc 1b93 63bd 81b1 86bd b3c9 e43d
000003e0: a464 c8bd 3717 b7bd ac9e acbd ba4c e03d
000003f0: 9066 cb3d be4a c23a 0bc3 ef3d 78fc 9fbd
0.07307929 -0.030639552 -0.05419443 -0.059756525 0.06986119 0.054453976 -0.018157564 0.027273469
0.09984226 -0.0013830488 -0.10329459 0.105236 -0.029292442 0.036474936 0.04814113 0.032900862
-0.1076204 -0.096037865 0.13257967 -0.0293631 -0.09883008 -0.05159797 0.0992927 0.04180343
0.03355608 -0.023229284 -0.035677545 0.056133702 -0.08406545 -0.02324709 -0.009765953 -0.012271094
-0.08751608 -0.07059326 -0.120822765 0.15233365 0.015521885 -0.047046147 -0.006956922 -0.04129044
-0.036013704 0.012765395 -0.05351109 0.04301828 0.089833364 0.028576445 -0.006292961 0.05918883
-0.029304897 -0.10943628 -0.112554714 0.056066275 -0.074437544 -0.12928125 0.0132325245 0.06585012
-0.05545532 -0.07164149 -0.09925992 -0.013159526 0.09376774 -0.006701904 0.07862887 -0.06380487
0.07944227 -0.094448015 0.095222 -0.10036506 -0.08573462 -0.10242781 -0.060865797 -0.008791079
-0.07673421 -0.039074223 -0.057493303 0.08414828 -0.046438985 0.00082784914 0.045690104 0.086581215
-0.06840735 -0.033816755 0.058877364 0.10147808 0.0130038215 0.10596747 -0.058897283 0.017319743
0.011739628 -0.048081074 0.06624846 -0.06339222 0.031653862 -0.104410425 0.09691563 -0.01032706
0.08737084 -0.049123432 -0.036074482 0.008909735 0.011163966 0.0489596 0.098684706 -0.107769094
-0.05674019 0.06076943 -0.040458456 0.03565229 -0.10601587 0.011566302 0.0025537494 0.11153458
-0.018466745 -0.058057018 -0.009285007 0.1027254 -0.01350843 -0.14163816 -0.05257357 0.023107134
0.05251061 0.016479487 0.0023518547 0.03298813 -0.09726756 -0.031749032 -0.018008305 -0.049974754
-0.059608463 -0.10721412 0.12405553 0.15413009 -0.0536366 -0.035383534 0.021026893 0.06567249
0.03960625 0.080385216 -0.062329747 0.010770237 -0.050181367 -0.045735613 -0.020047585 0.014593144
-0.080514 -0.09828017 0.09121482 -0.09553067 -0.015930839 -0.08212885 -0.06952278 0.07653288
0.058496747 -0.0004050071 0.0064963996 -0.0969496 -0.022532847 0.05207849 -0.057627697 -0.065640785
0.03449227 -0.020872071 -0.081679486 -0.021158753 -0.0849677 0.061394256 0.027573274 -0.088527866
0.06735471 -0.015083026 0.02100282 0.08248833 0.015402285 -0.08862785 -0.027756618 -0.052726667
0.05344665 -0.06169173 0.017991183 -0.005582124 0.1399264 -0.057666555 -0.09968983 -0.045351308
-0.11141342 0.11328744 -0.11443125 -0.056989 0.014046452 -0.044845667 0.06689857 0.04560617
0.0374565 -0.07405968 -0.027885538 -0.07049417 -0.068221234 -0.12074574 -0.040426254 -0.061590448
0.020620318 0.10437874 0.024625232 0.096679404 0.05171441 0.04967384 -0.011869175 -0.05065262
-0.057203233 -0.02997626 0.093847804 0.03978374 0.10659392 -0.051407002 0.06253907 -0.021384113
0.0728503 -0.09425807 0.095083915 0.10199835 -0.10257896 -0.11020859 -0.010241828 -0.0072419606
-0.10286465 -0.114621416 -0.08127904 -0.046954088 0.07345699 0.006570758 -0.009515787 0.009249766
-0.036711078 0.097476445 -0.07054144 0.049435027 0.049371213 -0.038717207 0.0711336 0.009894045
0.10855407 -0.02240708 -0.090414315 -0.03020297 -0.027561678 -0.055560213 -0.06576825 0.111712836
-0.09784821 -0.08939975 -0.08428702 0.109521344 0.099316716 0.00148233 0.11707123 -0.078118265

fc3.bias f4 [11]
00000000: bc62 10be ff9d ef3b 48c1 18bd 920a cabd
00000010: 2e67 a5bd 9329 893b 4936 943c 3228 94bd
00000020: cb4b 1b3e 7e55 bdbd a4f3 50bd
-0.14100164 0.007312536 -0.037293702 -0.098652974 -0.080763206 0.0041858642 0.018092291 -0.07234229
0.15165631 -0.09244822 -0.051013604
